JumperExercise/Learning/results/Jumperd/Jumper.onnx (onnx, 2291 bytes, 4 tensors)

network_body._body_endoder.seq_layers.0.weight f4 [20, 3]
0	0x3fac053f	1.3439101
1	0xbdef47bb	-0.116836034
2	0xbf387d75	-0.7206643
3	0x3f64d077	0.8938059
4	0x3ea90b75	0.33016554
5	0xbe1e80f9	-0.15478887
6	0x3eb9861a	0.36235124
7	0xbe0e1d7b	-0.13878433
8	0xbec9a6d3	-0.3938509
9	0xbde8475a	-0.11341734
10	0xbe66cb93	-0.22538595
11	0x3f18299b	0.59438485
12	0x3e81948c	0.25308645
13	0x3c34928f	0.01102127
14	0xbd9c8807	-0.07643133
15	0xbe8447d3	-0.25836048
16	0x3c0b3a3c	0.008497771
17	0x3f1bfbd0	0.6093111
18	0x3ebd8f0a	0.37023193
19	0xbf4f55e3	-0.8099043
20	0xbdc2cbce	-0.09511529
21	0xbdc39981	-0.09550763
22	0xbee60d93	-0.4493223
23	0x3f1f28d6	0.62171686
24	0x3f11cc4d	0.56952363
25	0x3dea6d3d	0.11446617
26	0xbea2bae7	-0.3178322
27	0x3ce917f3	0.028453803
28	0xbeb8c5fe	-0.36088556
29	0xbe03d582	-0.12874416
30	0xbfb29f8c	-1.395494
31	0x3ec2bde3	0.38035497
32	0xbdb85655	-0.090008415
33	0xbf755a5b	-0.95840997
34	0xbf1758ca	-0.59119856
35	0x3e22865e	0.1587157
36	0x3f8bf039	1.0932685
37	0xbe7f132b	-0.24909656
38	0x3d9379d8	0.07200974
39	0xbe9e3e98	-0.3090713
40	0xbebc3379	-0.3675802
41	0x3e2cbca5	0.16868837
42	0x3f7add7a	0.97994196
43	0xbed414c8	-0.41422105
44	0x3eddadb0	0.43296576
45	0x3e3875c6	0.18013677
46	0xbe73faa3	-0.23826079
47	0xbe571b74	-0.21006566
48	0x3f717a76	0.94327486
49	0xbe9f5773	-0.31121406
50	0xbe9c1bcb	-0.30489954
51	0xbd819120	-0.063265085
52	0xbdf0a395	-0.11749951
53	0xbe094b81	-0.13407709
54	0x3fbbffa2	1.4687388
55	0x3e37f128	0.17963088
56	0x3e2795bd	0.16365714
57	0xbe975ca4	-0.29562867
58	0x3e2d921f	0.16950272
59	0xbfcafbd7	-1.5858105

network_body._body_endoder.seq_layers.0.bias f4 [20]
0	0xbd898619	-0.0671503
1	0x3d6c9830	0.057762325
2	0xbd7a70a9	-0.061142597
3	0x3d3b0629	0.04566017
4	0xbd868ccb	-0.06569823
5	0x3d69f118	0.05711469
6	0xbd6bfefc	-0.05761622
7	0x3d836b06	0.064168975
8	0xbd881024	-0.066437036
9	0xbd819ed6	-0.06329124
10	0x3d77d0df	0.06050193
11	0xbd7a2172	-0.061067052
12	0xbd3c05a2	-0.04590381
13	0xbd67cde8	-0.056592852
14	0x3d4d359f	0.050099965
15	0xbd858787	-0.065199904
16	0xbd074212	-0.033021994
17	0xbd7882f7	-0.060671773
18	0x3d5c11e6	0.053728007
19	0xbd6d7037	-0.057968345

action_model._discrete_distribution.branches.0.weight f4 [2, 20]
0	0x3d1e5547	0.038655546
1	0xbcf59c8f	-0.02998188
2	0x3d42a5f2	0.04752154
3	0x3caf20c5	0.02137793
4	0x3d2dfb19	0.042475794
5	0xbd1919b0	-0.037378013
6	0x3cbac2ec	0.022798024
7	0xbd84d4b3	-0.06485882
8	0x3d5318f4	0.05153747
9	0x3d191d0a	0.03738121
10	0xbd4ee3d6	-0.05051025
11	0x3d1a2d59	0.037640903
12	0x3d08fd80	0.03344488
13	0x3da6070c	0.08106813
14	0xbddd745e	-0.10813211
15	0x3d585940	0.05281949
16	0x3b1d2c8d	0.0023982853
17	0x3d3279df	0.043573257
18	0xbc91c94b	-0.01779618
19	0x3ccad6d8	0.024760649
20	0xbca81023	-0.020515507
21	0x3d4cd429	0.05000702
22	0xbc335d10	-0.010947481
23	0x3d14dfed	0.036346365
24	0xbda8550a	-0.08219345
25	0xbca00c25	-0.019537041
26	0xbc7cb3a5	-0.01542369
27	0x3cb1e1a1	0.021714034
28	0xbd45fe5a	-0.04833827
29	0xbcdf5a5c	-0.027264766
30	0x3c0e5e01	0.008689404
31	0xbcf33792	-0.029689584
32	0xbc9fd794	-0.019511975
33	0xbcce65d5	-0.025195042
34	0x3cb4699b	0.022023013
35	0xbc9974e6	-0.0187325
36	0x3b83eef4	0.004026288
37	0xbd0f80c2	-0.035034902
38	0x3d065b4e	0.03280192
39	0xbc8700d3	-0.016479885

action_model._discrete_distribution.branches.0.bias f4 [2]
0	0xbd3f3c78	-0.046688527
1	0x3d3f3c78	0.046688527
