JumperExercise/Learning/results/Jump1/Jumper/Jumper-14756.pt (torch, 12808 bytes, 21 tensors)

network_body._body_endoder.seq_layers.0.weight f4 [20, 3]
000000 d6 c9 a6 3e 51 84 93 bf 5f 83 45 bb 33 0b 06 bf
       0.32575864 -1.1524755 -0.0030138118 -0.5236084
000010 1e 4e d5 be 7f 5b 31 bf f2 8f 93 be 2b c1 95 be
       -0.4166116 -0.69280237 -0.2882076 -0.29248938
000020 4e cb ff bc 0a 2f 8a bf ed c9 4a be ed a0 48 bf
       -0.031224873 -1.0795605 -0.19803591 -0.78370553
000030 51 0c 4c be 53 42 1e bf e1 23 23 3f 8f 89 3d be
       -0.19926573 -0.6181995 0.6372662 -0.18509506
000040 2e 00 99 3e c8 e6 a1 bf ce d1 1e bf ba 39 bb bd
       0.2988295 -1.2648554 -0.62038887 -0.0914187
000050 15 4a b9 3e 88 b9 2a 3f 99 4f 2f 3f 3f 6b ae 3f
       0.36189333 0.6668935 0.6848083 1.3626479
000060 db 6d 99 bd c7 ad ea be 15 ff bb 3e 42 7f 01 bf
       -0.074916564 -0.45835707 0.3671805 -0.50584805
000070 c2 13 f2 3d 1c 51 f7 3e cd c3 9b 3f 22 f4 44 3f
       0.11820175 0.4830407 1.2169129 0.7693502
000080 4c ef 39 3f 53 da 27 3f 56 2c 30 bf 3c 7e ad bd
       0.72630763 0.6556751 -0.6881765 -0.08471343
000090 e5 17 96 bd 32 d6 3a 3e 07 31 fa 3f 20 f5 3a bf
       -0.07328776 0.18245772 1.9546212 -0.7303028
0000a0 01 8a 1a 3f 1a 5a 66 3f b2 34 d0 3e 82 c1 f7 3e
       0.6036683 0.89981234 0.40665203 0.48389822
0000b0 7d e8 d1 3e 53 aa 76 bb 2a 71 8d 3e c1 58 70 3e
       0.40997687 -0.0037638142 0.276254 0.23471357
0000c0 0c c8 da 3e a1 9c 6b 3f 85 12 87 bf 50 4a d0 bd
       0.4273075 0.9203587 -1.0552527 -0.10170424
0000d0 32 8f 81 bd 05 ed 18 3f 92 74 8c 39 4e 82 99 be
       -0.063261405 0.59736663 0.00026789733 -0.29982227
0000e0 24 1c ad be 3a ba 05 3f 04 b2 ab 3d dc 3f 55 3d
       -0.33810532 0.52237284 0.08383563 0.052062854

network_body._body_endoder.seq_layers.0.bias f4 [20]
000000 ad 89 42 3c 45 80 77 3c 3b 6c bf 3c 67 7f 83 3c
       0.011873645 0.015106265 0.023367038 0.016051961
000010 20 38 0a 3d f2 72 f3 bc 84 71 67 bc 35 d0 cd 3c
       0.03374493 -0.029717896 -0.014126185 0.025123695
000020 96 c0 e3 3c d1 e8 23 bc 84 8e 07 3d f6 57 01 bd
       0.027801793 -0.010004238 0.033094898 -0.031578027
000030 43 9b 90 3c 38 cf 36 bc 0d 85 51 bc 85 66 00 3d
       0.01765216 -0.011157803 -0.012788069 0.03134777
000040 9c 5e 0f bd 9c a3 54 bc fb 26 d1 bc f1 7a d2 bc
       -0.035002336 -0.012978461 -0.025531283 -0.025693389

action_model._discrete_distribution.branches.0.weight f4 [2, 20]
000000 3d f1 03 3b 43 5e be bb 23 e3 f3 bc b1 34 c4 3a
       0.0020132803 -0.0058095767 -0.029771393 0.0014969317
000010 0f 16 5f bd 5c 96 3f 3d d2 a8 6c 3b 16 ef db bc
       -0.054464396 0.046774253 0.0036111367 -0.026847403
000020 74 38 de bc c9 b2 93 bc 21 d8 ba bc 0b 4a 44 3d
       -0.027126528 -0.018029587 -0.022808136 0.047922175
000030 cc 34 97 bb 4d 22 71 3c 76 94 37 bc 1e 23 25 bd
       -0.004614448 0.014717651 -0.011204829 -0.040316693
000040 a4 06 d6 3c 52 61 91 bb 3d ca 08 3c 43 9d ba 3c
       0.026126213 -0.0044366503 0.008348999 0.022780066
000050 e4 ab 45 3b 7c 80 c6 3a 6b 90 30 3c 38 b0 39 3c
       0.003016227 0.0015144492 0.010776619 0.011333518
000060 ee 4b 8d 3c c3 84 96 bd dd cb 17 3b 82 80 47 3c
       0.01724812 -0.07349541 0.0023162283 0.012176635
000070 13 a3 2a 3d b6 4d 77 bc d9 14 84 3d 25 ce c2 bc
       0.041659426 -0.015094211 0.06449289 -0.023779938
000080 57 15 c8 3c c5 65 8e 3c 6a 74 39 bc bc 21 80 3d
       0.024424238 0.017382512 -0.011319259 0.06256434
000090 bc 1b 55 bd 8f 7e c1 bb d1 09 03 bd 7c 51 2c bd
       -0.052028403 -0.0059049795 -0.031991784 -0.042069897

action_model._discrete_distribution.branches.0.bias f4 [2]
000000 1d d0 dd bc 1b d0 dd 3c
       -0.027076775 0.027076771

exp_avg f4 [20, 3]
000000 00 00 00 00 ec 9a 57 b4 6b ce 79 b4 00 00 00 00
       0.0 -2.0079796e-07 -2.3265027e-07 0.0
000010 7c 83 39 b5 00 55 40 b5 00 00 00 00 07 39 b7 b7
       -6.9109205e-07 -7.1649265e-07 0.0 -2.1841855e-05
000020 dd ef b6 b7 00 00 00 00 41 88 d3 b5 ce 85 d6 b5
       -2.1807786e-05 0.0 -1.576038e-06 -1.5983185e-06
000030 00 00 00 00 6c cb 4d b8 2a d0 4c b8 00 00 00 00
       0.0 -4.906526e-05 -4.8831258e-05 0.0
000040 ea ae 57 37 ce 0d 55 37 00 00 00 00 11 08 77 36
       1.2855724e-05 1.26990035e-05 0.0 3.6810563e-06
000050 95 4b 78 36 00 00 00 00 47 05 6d b8 28 ac 6c b8
       3.6998874e-06 0.0 -5.6510118e-05 -5.6427118e-05
000060 00 00 00 00 8f ee 3e b8 24 59 3e b8 00 00 00 00
       0.0 -4.5521705e-05 -4.538255e-05 0.0
000070 7a 66 28 35 a8 b3 32 35 00 00 00 00 98 73 06 b9
       6.2734e-07 6.65716e-07 0.0 -0.00012822298
000080 c9 50 06 b9 00 00 00 00 e4 e9 66 37 e6 dd 64 37
       -0.0001280933 0.0 1.3763525e-05 1.3641524e-05
000090 00 00 00 00 54 2f 2a b8 89 e1 29 b8 00 00 00 00
       0.0 -4.0575236e-05 -4.0502786e-05 0.0
0000a0 49 37 d6 35 3e ef db 35 00 00 00 00 db c6 a1 36
       1.5960333e-06 1.63864e-06 0.0 4.8213237e-06
0000b0 1b 07 a3 36 00 00 00 00 be 1a e5 b8 a4 c4 e4 b8
       4.8586057e-06 0.0 -0.00010924552 -0.000109085144
0000c0 00 00 00 00 cc 37 39 38 ce 79 38 38 00 00 00 00
       0.0 4.4159402e-05 4.3982458e-05 0.0
0000d0 17 e6 b2 36 82 f9 b3 36 00 00 00 00 66 5a 2a 37
       5.3315994e-06 5.3636622e-06 0.0 1.0153837e-05
0000e0 f2 b9 28 37 00 00 00 00 70 4c 5f 38 b6 f1 5e 38
       1.0056874e-05 0.0 5.323853e-05 5.3154035e-05

exp_avg_sq f4 [20, 3]
000000 00 00 00 00 ad 89 19 2c 56 c1 4a 2c 00 00 00 00
       0.0 2.1819033e-12 2.881325e-12 0.0
000010 bf 37 4e 2d 99 d9 68 2d 00 00 00 00 18 8f c1 31
       1.1722122e-11 1.32359896e-11 0.0 5.633307e-09
000020 92 65 c2 31 00 00 00 00 f2 f0 7a 2e 5c 37 82 2e
       5.6576903e-09 0.0 5.705742e-11 5.9215494e-11
000030 00 00 00 00 b6 b7 91 31 d4 15 93 31 00 00 00 00
       0.0 4.240941e-09 4.2807446e-09 0.0
000040 67 62 0d 31 4b c8 10 31 00 00 00 00 47 12 fc 2f
       2.0574136e-09 2.1068611e-09 0.0 4.585152e-10
000050 cc 83 fc 2f 00 00 00 00 72 e6 cf 32 c4 36 d0 32
       4.593218e-10 0.0 2.4202766e-08 2.4239291e-08
000060 00 00 00 00 81 b2 66 32 25 aa 67 32 00 00 00 00
       0.0 1.3428349e-08 1.3484656e-08 0.0
000070 f0 7d 8e 30 7d a7 8e 30 00 00 00 00 7d 0b 37 34
       1.0367653e-09 1.0379463e-09 0.0 1.7047383e-07
000080 53 4a 37 34 00 00 00 00 52 a3 f4 30 bd 9a f7 30
       1.7070242e-07 0.0 1.7799755e-09 1.8015595e-09
000090 00 00 00 00 5f 83 2a 32 43 cf 2a 32 00 00 00 00
       0.0 9.925173e-09 9.942428e-09 0.0
0000a0 92 f9 40 31 a6 1d 41 31 00 00 00 00 37 ba 44 31
       2.8081542e-09 2.810205e-09 0.0 2.8627605e-09
0000b0 de e7 44 31 00 00 00 00 9b df f6 33 31 5c f7 33
       2.8653555e-09 0.0 1.1495941e-07 1.1518603e-07
0000c0 00 00 00 00 a4 ca 15 32 a2 9f 16 32 00 00 00 00
       0.0 8.719017e-09 8.767445e-09 0.0
0000d0 9b 6e 0c 31 17 9a 0c 31 00 00 00 00 19 05 37 30
       2.0435553e-09 2.0460271e-09 0.0 6.6582256e-10
0000e0 14 d9 38 30 00 00 00 00 63 73 f6 32 11 13 f7 32
       6.7247297e-10 0.0 2.8690641e-08 2.8763255e-08

exp_avg f4 [20]
000000 cc 2c 71 b7 1c 3b 49 b7 4c 43 e0 b6 66 c9 40 b7
       -1.43751495e-05 -1.1994296e-05 -6.6835546e-06 -1.14909835e-05
000010 82 f2 66 38 14 9a 6e b8 d1 5b 4a 37 3a 2b a4 b7
       5.5062126e-05 -5.688712e-05 1.2061516e-05 -1.9570452e-05
000020 10 b0 89 37 41 84 94 37 1d db 93 b8 7a fd 29 b8
       1.6413658e-05 1.770456e-05 -7.050319e-05 -4.052881e-05
000030 21 d3 0b b7 ae 6f ac 37 1f 9d b3 37 a3 e7 1e b8
       -8.334203e-06 2.0556003e-05 2.1411628e-05 -3.7885864e-05
000040 9f 07 11 b8 94 6a a4 37 ef 63 0a b8 d7 34 83 37
       -3.457779e-05 1.9599953e-05 -3.2994834e-05 1.5641022e-05

exp_avg_sq f4 [20]
000000 34 b9 09 34 5a c9 86 34 1a df 69 35 f5 d8 a0 34
       1.2826496e-07 2.5105948e-07 8.712392e-07 2.996018e-07
000010 19 90 d6 34 05 90 82 36 3b 8f 5b 33 61 94 a5 34
       3.996545e-07 3.891068e-06 5.112018e-08 3.0841605e-07
000020 9b 6b 93 35 b2 87 0a 34 9c f2 19 36 cc 62 86 35
       1.0983671e-06 1.2901617e-07 2.2939994e-06 1.0012532e-06
000030 d6 47 33 34 d8 8d 43 34 da 59 42 34 53 b5 4b 36
       1.6696808e-07 1.8212393e-07 1.8100346e-07 3.0354902e-06
000040 ee 90 53 35 9a b4 3b 34 ca a5 67 34 26 55 c2 35
       7.8814526e-07 1.7481435e-07 2.1573865e-07 1.4478908e-06

exp_avg f4 [2, 20]
000000 6e fa da b9 ca 62 db b9 fe 56 63 b9 c0 ca d5 b9
       -0.00041766785 -0.0004184454 -0.00021680814 -0.00040777586
000010 3b 94 b2 b7 2f d9 bf b9 60 0a 6f 39 a8 fc 2e 3b
       -2.1288279e-05 -0.00036592173 0.00022796681 0.0026700888
000020 a4 34 b0 b8 03 d3 14 3a c6 29 ed 3a 60 c4 ae b9
       -8.402139e-05 0.0005677195 0.0018094114 -0.00033334177
000030 0a e3 37 3b 0e ba ec 3a 8e 12 74 3a 5c c7 f3 39
       0.002805891 0.001806082 0.0009310626 0.00046497106
000040 ef ff 92 b8 a9 b1 01 3a 06 eb 9b b9 d6 97 f8 38
       -7.009494e-05 0.0004947433 -0.0002973901 0.00011853843
000050 6e fa da 39 cc 62 db 39 02 57 63 39 c2 ca d5 39
       0.00041766785 0.00041844544 0.0002168082 0.00040777592
000060 0f 94 b2 37 2e d9 bf 39 60 0a 6f b9 aa fc 2e bb
       2.1288199e-05 0.0003659217 -0.00022796681 -0.0026700892
000070 a6 34 b0 38 07 d3 14 ba cc 29 ed ba 62 c4 ae 39
       8.4021405e-05 -0.00056771975 -0.0018094121 0.00033334183
000080 10 e3 37 bb 10 ba ec ba 90 12 74 ba 66 c7 f3 b9
       -0.0028058924 -0.0018060822 -0.00093106274 -0.00046497135
000090 f3 ff 92 38 aa b1 01 ba 05 eb 9b 39 d4 97 f8 b8
       7.009497e-05 -0.00049474335 0.00029739007 -0.00011853842

exp_avg_sq f4 [2, 20]
000000 f0 20 16 36 04 4a 14 36 cb d0 1b 35 0a 65 0c 36
       2.2370914e-06 2.2096801e-06 5.8045833e-07 2.0920438e-06
000010 38 c6 c7 33 6e f6 19 36 1a 62 3e 35 99 f8 c7 38
       9.3027154e-08 2.2942218e-06 7.092327e-07 9.5353644e-05
000020 8e a1 11 34 6f de 93 36 be e9 39 38 90 1d 00 36
       1.356295e-07 4.406836e-06 4.4325127e-05 1.9090694e-06
000030 6f e3 dc 38 66 c7 39 38 76 aa 45 37 9f 1d 55 36
       0.0001053278 4.429314e-05 1.1781804e-05 3.1756715e-06
000040 94 69 96 34 b3 7d 5f 36 b7 bc c5 35 cb 97 65 34
       2.8016495e-07 3.3302756e-06 1.4732567e-06 2.1382509e-07
000050 f0 20 16 36 05 4a 14 36 cb d0 1b 35 09 65 0c 36
       2.2370914e-06 2.2096804e-06 5.8045833e-07 2.0920436e-06
000060 39 c6 c7 33 6c f6 19 36 18 62 3e 35 96 f8 c7 38
       9.302716e-08 2.2942213e-06 7.092326e-07 9.535362e-05
000070 8d a1 11 34 6f de 93 36 be e9 39 38 8e 1d 00 36
       1.3562949e-07 4.406836e-06 4.4325127e-05 1.909069e-06
000080 6e e3 dc 38 65 c7 39 38 74 aa 45 37 9f 1d 55 36
       0.000105327796 4.4293138e-05 1.1781802e-05 3.1756715e-06
000090 93 69 96 34 b4 7d 5f 36 b7 bc c5 35 c9 97 65 34
       2.8016493e-07 3.3302758e-06 1.4732567e-06 2.1382506e-07

exp_avg f4 [2]
000000 45 85 45 3a 66 85 45 ba
       0.00075348123 -0.00075348315

exp_avg_sq f4 [2]
000000 88 94 ed 3a 89 94 ed 3a
       0.0018125931 0.0018125932

exp_avg f4 [20, 3]
000000 00 00 00 00 1d 75 93 37 ba 5a 7f 37 00 00 00 00
       0.0 1.75783e-05 1.5220308e-05 0.0
000010 2e d9 93 b7 3c e2 8c b7 00 00 00 00 1b b4 33 38
       -1.7624898e-05 -1.679465e-05 0.0 4.2844662e-05
000020 b5 b6 24 38 00 00 00 00 a2 e4 70 b8 b6 56 60 b8
       3.9270806e-05 0.0 -5.743339e-05 -5.3486518e-05
000030 00 00 00 00 70 5c 4a 36 a6 76 e1 35 00 00 00 00
       0.0 3.0154151e-06 1.6798338e-06 0.0
000040 da c2 02 39 aa 7a f9 38 00 00 00 00 66 bd a1 38
       0.00012470354 0.00011896093 0.0 7.7123565e-05
000050 f8 a5 92 38 00 00 00 00 ac 57 28 b9 5c 7d 20 b9
       6.9927366e-05 0.0 -0.00016054389 -0.00015305489
000060 00 00 00 00 d6 a3 70 b8 a9 6f 4d b8 00 00 00 00
       0.0 -5.7373043e-05 -4.89798e-05 0.0
000070 41 7c 96 b8 32 59 8f b8 00 00 00 00 0f 18 80 b8
       -7.1757015e-05 -6.835385e-05 0.0 -6.107997e-05
000080 8b f0 73 b8 00 00 00 00 78 a9 bd b7 63 e5 b4 b7
       -5.8159738e-05 0.0 -2.260947e-05 -2.1564489e-05
000090 00 00 00 00 b0 20 1e 39 4c c0 16 39 00 00 00 00
       0.0 0.00015080231 0.00014376751 0.0
0000a0 ea cb 34 b9 d8 e1 2d b9 00 00 00 00 a4 3c 7d 38
       -0.00017242102 -0.00016582699 0.0 6.0376376e-05
0000b0 06 66 73 38 00 00 00 00 98 48 8c 38 6e f4 86 38
       5.803073e-05 0.0 6.689242e-05 6.4351465e-05
0000c0 00 00 00 00 d2 90 ad b8 a6 06 a1 b8 00 00 00 00
       0.0 -8.276258e-05 -7.6783166e-05 0.0
0000d0 aa 35 c0 37 4a d9 8b 37 00 00 00 00 99 fc 37 39
       2.2913173e-05 1.6671274e-05 0.0 0.0001754634
0000e0 35 ac 30 39 00 00 00 00 2e 33 7b 37 6c c8 55 37
       0.0001684882 0.0 1.4972682e-05 1.2742454e-05

exp_avg_sq f4 [20, 3]
000000 00 00 00 00 49 48 e8 2f 18 49 1f 30 00 00 00 00
       0.0 4.2251916e-10 5.7947735e-10 0.0
000010 a1 e7 23 30 ae 9b 3b 30 00 00 00 00 4d 84 31 31
       5.962822e-10 6.825144e-10 0.0 2.5832094e-09
000020 19 f9 50 31 00 00 00 00 28 17 be 31 00 80 d6 31
       3.040958e-09 0.0 5.5323603e-09 6.2427716e-09
000030 00 00 00 00 d2 86 28 2d c4 b2 46 2e 00 00 00 00
       0.0 9.5796305e-12 4.5178764e-11 0.0
000040 e6 51 bb 32 b6 a6 c8 32 00 00 00 00 04 71 0e 32
       2.1806908e-08 2.3358876e-08 0.0 8.291185e-09
000050 4a 95 28 32 00 00 00 00 aa 07 2c 33 43 5f 38 33
       9.812831e-09 0.0 4.005384e-08 4.292748e-08
000060 00 00 00 00 0a df bf 31 da 60 fb 31 00 00 00 00
       0.0 5.5841882e-09 7.316072e-09 0.0
000070 fd 8a 0e 32 86 e5 19 32 00 00 00 00 04 e1 ca 31
       8.29709e-09 8.95796e-09 0.0 5.904555e-09
000080 92 27 dc 31 00 00 00 00 4e 0c 75 30 24 9d 89 30
       6.4073413e-09 0.0 8.9147967e-10 1.0012724e-09
000090 00 00 00 00 79 a7 08 33 a0 60 12 33 00 00 00 00
       0.0 3.1817283e-08 3.4081154e-08 0.0
0000a0 af 6e 43 33 cd 88 4e 33 00 00 00 00 75 b3 aa 31
       4.550264e-08 4.8087532e-08 0.0 4.968053e-09
0000b0 b1 bd b3 31 00 00 00 00 07 31 d1 31 9c c5 db 31
       5.231151e-09 0.0 6.0882743e-09 6.3962045e-09
0000c0 00 00 00 00 c5 be 40 32 57 e0 59 32 00 00 00 00
       0.0 1.1219247e-08 1.2682071e-08 0.0
0000d0 7f 80 30 30 ba 63 af 30 00 00 00 00 79 76 3a 33
       6.421103e-10 1.276127e-09 0.0 4.341425e-08
0000e0 94 b5 44 33 00 00 00 00 bc ed a3 2f a5 a3 ed 2f
       4.579995e-08 0.0 2.9818448e-10 4.3226325e-10

exp_avg f4 [20]
000000 a0 3c 87 ba d3 79 b8 39 86 d8 ca ba ea b0 de 3a
       -0.001031775 0.0003518598 -0.0015475906 0.001698998
000010 bf 04 1b ba 1c 4f 1f bb 30 d2 4c bb 75 e4 4f 3b
       -0.0005913488 -0.0024308627 -0.0031253211 0.0031721864
000020 a6 06 71 3b 35 19 bd 3a 40 54 a2 3a 5e f6 e7 39
       0.0036777644 0.0014427068 0.0012384728 0.0004424331
000030 10 49 43 bb 4c 03 35 3b 0f e8 80 ba ca 71 8b ba
       -0.0029798187 0.0027620373 -0.0009834784 -0.001063877
000040 b4 f6 28 3b a0 8a 34 bb 56 ee 3f bb 43 20 80 ba
       0.0025781812 -0.0027548447 -0.0029286346 -0.000977524

exp_avg_sq f4 [20]
000000 ae c3 72 37 8a 46 68 36 2d d2 02 38 ee 27 13 38
       1.4469884e-05 3.4611753e-06 3.1190157e-05 3.508472e-05
000010 ab 4a be 36 26 eb 93 38 69 30 e7 38 68 f2 e4 38
       5.6711337e-06 7.053306e-05 0.000110239554 0.00010917039
000020 b5 a1 15 39 b5 2c d0 37 e7 9e a5 37 f3 88 94 36
       0.00014269988 2.481635e-05 1.9743527e-05 4.4266867e-06
000030 13 08 d9 38 d8 aa b0 38 5b c6 38 37 c8 b4 53 37
       0.0001034887 8.424156e-05 1.1013438e-05 1.26186715e-05
000040 55 ea 9f 38 7f f2 ae 38 ed dd c5 38 18 0e 60 37
       7.6253586e-05 8.342135e-05 9.435029e-05 1.3354722e-05

exp_avg f4 [1, 20]
000000 5c 79 6a 37 ee 14 8e 38 d8 6f dd b7 36 0b a7 38
       1.3975743e-05 6.774986e-05 -2.6397334e-05 7.965269e-05
000010 ce f8 54 38 cb e5 7f b9 8c ea 13 b8 26 9e ee b8
       5.0776456e-05 -0.000244043 -3.526597e-05 -0.00011378182
000020 61 d2 1f 39 86 b4 87 b8 c1 37 59 b8 7f 41 24 38
       0.00015241794 -6.470927e-05 -5.1788757e-05 3.9161645e-05
000030 f4 60 7c b9 d3 e7 b5 b9 19 a4 e5 b9 57 6a 00 ba
       -0.0002406871 -0.00034695733 -0.00043800546 -0.00048986584
000040 15 27 90 38 d9 71 33 38 f1 ac e4 b9 ee e2 f6 37
       6.873735e-05 4.2782955e-05 -0.000436164 2.9431158e-05

exp_avg_sq f4 [1, 20]
000000 6d 9e bc 33 9b cb 48 33 14 41 94 33 ae 4e 3b 33
       8.78325e-08 4.6751307e-08 6.903625e-08 4.361089e-08
000010 1e fd e7 33 4f 55 37 33 ba 0a 8a 33 a2 82 35 34
       1.08028175e-07 4.2685596e-08 6.428077e-08 1.6904463e-07
000020 4c e2 36 33 81 f8 0b 34 7d f2 e7 33 60 c4 7e 33
       4.2580993e-08 1.3035789e-07 1.0800884e-07 5.9317586e-08
000030 0a 1a 4a 33 7b d4 fd 34 86 5e 07 34 99 6d 45 34
       4.7055472e-08 4.7279522e-07 1.2607242e-07 1.8386926e-07
000040 13 e2 5d 33 4d c4 e1 33 b5 27 21 34 60 eb cd 33
       5.1661186e-08 1.0513086e-07 1.5008739e-07 9.588871e-08

network_body._body_endoder.seq_layers.0.weight f4 [20, 3]
000000 c1 7a b2 3d 65 2e 79 be 3c cb aa be c3 10 6c bf
       0.0871482 -0.24334104 -0.3335818 -0.92213076
000010 22 4d 24 be 97 0f 03 3e 1e d6 2c bf e2 ce f9 be
       -0.16045049 0.12798916 -0.67514217 -0.48790652
000020 37 6c 80 3e 73 24 29 bf b2 3a 40 bf 4b 4a 47 3f
       0.2508256 -0.6607124 -0.7508956 0.7784774
000030 fb 25 59 bd 53 16 65 bf f0 37 1e be d8 99 7f 3e
       -0.053014737 -0.8948719 -0.15451026 0.2496103
000040 7d 5d dc 3e 60 4b e1 3d ce fe 11 bf 79 11 00 3e
       0.43040076 0.11000705 -0.57029426 0.12506665
000050 16 eb c5 be e5 1e 8d 3f bb 61 0d be ce 06 4f 3f
       -0.3865592 1.1025053 -0.13806812 0.8086976
000060 8d 62 98 bf 6a b7 2f bd 95 85 ec be 22 7f 60 bd
       -1.1905075 -0.042899527 -0.46195665 -0.054808743
000070 ed d5 1f bf f7 11 96 3f 0b 05 6b 3c 5e 0e 11 3f
       -0.624358 1.1724232 0.014344464 0.5666255
000080 2b 09 01 be 68 d8 99 3e fb 5e c7 3e ae 02 9d be
       -0.12601154 0.30047917 0.38939652 -0.30666107
000090 c0 c0 2e 3f 1e ec 38 3e 3e db b8 3e 71 60 37 bf
       0.68262863 0.18058822 0.3610477 -0.7163153
0000a0 cd 1f 9f 3e a2 ce 6a 3f 14 e0 3d bf 90 78 8c 3f
       0.3107895 0.91721547 -0.7417004 1.0974293
0000b0 d2 6d b1 bd 2b 22 d3 bd 5f 03 52 3f 4d 2f a4 3e
       -0.08663525 -0.103092514 0.82036394 0.32067338
0000c0 85 38 7e bf f6 a8 85 3e 4d 3e 85 be 7d a2 34 be
       -0.9930499 0.2610547 -0.26024094 -0.1764011
0000d0 e5 f0 84 bf bb 65 44 3e b7 01 4e 3f 3b 44 cd 3e
       -1.0386015 0.19179432 0.80471367 0.40091118
0000e0 d4 fc 21 3f 3d 49 c7 be 5d 94 4e bf d3 f3 26 3e
       0.6327641 -0.38923064 -0.80695134 0.16303949

network_body._body_endoder.seq_layers.0.bias f4 [20]
000000 36 3b c6 3c e1 3e be bc 3e 47 c6 3c 6b 46 c5 bc
       0.024198156 -0.023223342 0.024203893 -0.02408143
000010 b7 82 c5 3c fc 11 c7 3c fa 14 c7 3c d2 3c c5 bc
       0.024110181 0.024300568 0.024301995 -0.024076853
000020 d8 21 c7 bc d9 7b c4 bc d8 73 c4 bc 6a a7 c0 bc
       -0.02430813 -0.023984836 -0.02398102 -0.02351733
000030 bb 05 c7 3c c6 92 c4 bc 7d 20 c8 3c 83 11 c8 3c
       0.024294725 -0.023995768 0.024429554 0.024422413
000040 6a a9 c5 bc eb da c7 3c 09 cd c6 3c 7d 47 c6 3c
       -0.024128634 0.02439638 0.02426769 0.02420401

value_heads.value_heads.extrinsic.weight f4 [1, 20]
000000 cc b4 27 be 4b 80 af 3d 06 6d 73 be d9 a4 7f 3e
       -0.16377562 0.08569392 -0.23772058 0.24965228
000010 ac c0 d9 bd fd c9 b2 be 9d ec de be 88 05 dd 3e
       -0.10632452 -0.3491973 -0.43539897 0.43168283
000020 53 c8 ff 3e dc 80 55 3e 8f ce 43 3e c7 6b c7 3d
       0.49957523 0.20849937 0.19121765 0.09737354
000030 8e cc d7 be a2 b3 c1 3e 23 c5 0b be 78 14 15 be
       -0.4214825 0.3783236 -0.1364942 -0.1455859
000040 2d 4d bc 3e 8e 1c c3 be 60 95 ca be 58 be 22 be
       0.3677763 -0.38107723 -0.3956709 -0.15892923
