JumperExercise/Learning/results/Jumperd/Jumper/Jumper-401146.pt (torch, 12808 bytes, 21 tensors)

network_body._body_endoder.seq_layers.0.weight f4 [20, 3]
00000000: 3f05 ac3f bb47 efbd 757d 38bf 77d0 643f
00000010: 750b a93e f980 1ebe 1a86 b93e 7b1d 0ebe
00000020: d3a6 c9be 5a47 e8bd 93cb 66be 9b29 183f
00000030: 8c94 813e 8f92 343c 0788 9cbd d347 84be
00000040: 3c3a 0b3c d0fb 1b3f 0a8f bd3e e355 4fbf
00000050: cecb c2bd 8199 c3bd 930d e6be d628 1f3f
00000060: 4dcc 113f 3d6d ea3d e7ba a2be f317 e93c
00000070: fec5 b8be 82d5 03be 8c9f b2bf e3bd c23e
00000080: 5556 b8bd 5b5a 75bf ca58 17bf 5e86 223e
00000090: 39f0 8b3f 2b13 7fbe d879 933d 983e 9ebe
000000a0: 7933 bcbe a5bc 2c3e 7add 7a3f c814 d4be
000000b0: b0ad dd3e c675 383e a3fa 73be 741b 57be
000000c0: 767a 713f 7357 9fbe cb1b 9cbe 2091 81bd
000000d0: 95a3 f0bd 814b 09be a2ff bb3f 28f1 373e
000000e0: bd95 273e a45c 97be 1f92 2d3e d7fb cabf
1.3439101 -0.116836034 -0.7206643 0.8938059 0.33016554 -0.15478887 0.36235124 -0.13878433
-0.3938509 -0.11341734 -0.22538595 0.59438485 0.25308645 0.01102127 -0.07643133 -0.25836048
0.008497771 0.6093111 0.37023193 -0.8099043 -0.09511529 -0.09550763 -0.4493223 0.62171686
0.56952363 0.11446617 -0.3178322 0.028453803 -0.36088556 -0.12874416 -1.395494 0.38035497
-0.090008415 -0.95840997 -0.59119856 0.1587157 1.0932685 -0.24909656 0.07200974 -0.3090713
-0.3675802 0.16868837 0.97994196 -0.41422105 0.43296576 0.18013677 -0.23826079 -0.21006566
0.94327486 -0.31121406 -0.30489954 -0.063265085 -0.11749951 -0.13407709 1.4687388 0.17963088
0.16365714 -0.29562867 0.16950272 -1.5858105

network_body._body_endoder.seq_layers.0.bias f4 [20]
00000000: 1986 89bd 3098 6c3d a970 7abd 2906 3b3d
00000010: cb8c 86bd 18f1 693d fcfe 6bbd 066b 833d
00000020: 2410 88bd d69e 81bd dfd0 773d 7221 7abd
00000030: a205 3cbd e8cd 67bd 9f35 4d3d 8787 85bd
00000040: 1242 07bd f782 78bd e611 5c3d 3770 6dbd
-0.0671503 0.057762325 -0.061142597 0.04566017 -0.06569823 0.05711469 -0.05761622 0.064168975
-0.066437036 -0.06329124 0.06050193 -0.061067052 -0.04590381 -0.056592852 0.050099965 -0.065199904
-0.033021994 -0.060671773 0.053728007 -0.057968345

action_model._discrete_distribution.branches.0.weight f4 [2, 20]
00000000: 4755 1e3d 8f9c f5bc f2a5 423d c520 af3c
00000010: 19fb 2d3d b019 19bd ecc2 ba3c b3d4 84bd
00000020: f418 533d 0a1d 193d d6e3 4ebd 592d 1a3d
00000030: 80fd 083d 0c07 a63d 5e74 ddbd 4059 583d
00000040: 8d2c 1d3b df79 323d 4bc9 91bc d8d6 ca3c
00000050: 2310 a8bc 29d4 4c3d 105d 33bc eddf 143d
00000060: 0a55 a8bd 250c a0bc a5b3 7cbc a1e1 b13c
00000070: 5afe 45bd 5c5a dfbc 015e 0e3c 9237 f3bc
00000080: 94d7 9fbc d565 cebc 9b69 b43c e674 99bc
00000090: f4ee 833b c280 0fbd 4e5b 063d d300 87bc
0.038655546 -0.02998188 0.04752154 0.02137793 0.042475794 -0.037378013 0.022798024 -0.06485882
0.05153747 0.03738121 -0.05051025 0.037640903 0.03344488 0.08106813 -0.10813211 0.05281949
0.0023982853 0.043573257 -0.01779618 0.024760649 -0.020515507 0.05000702 -0.010947481 0.036346365
-0.08219345 -0.019537041 -0.01542369 0.021714034 -0.04833827 -0.027264766 0.008689404 -0.029689584
-0.019511975 -0.025195042 0.022023013 -0.0187325 0.004026288 -0.035034902 0.03280192 -0.016479885

action_model._discrete_distribution.branches.0.bias f4 [2]
00000000: 783c 3fbd 783c 3f3d
-0.046688527 0.046688527

exp_avg f4 [20, 3]
00000000: 0000 0000 0949 a9b4 959f deb5 0000 0000
00000010: 7491 2b36 7af3 9a36 0000 0000 0d31 33b5
00000020: 1a88 06b6 0000 0000 615e 1535 618b 7c35
00000030: 0000 0000 6e51 3cb6 4853 bdb6 0000 0000
00000040: 1e0a 4f35 e98a a535 0000 0000 5375 33b4
00000050: 0d65 8cb5 0000 0000 b623 3a36 ac7e a836
00000060: 0000 0000 19c6 feb5 9ad9 8bb6 0000 0000
00000070: e59e 55b5 ac6f 18b6 0000 0000 d3e5 0a36
00000080: 7f9c 7136 0000 0000 5abd 76b5 f622 25b6
00000090: 0000 0000 ba9d 8fb5 3e87 1ab6 0000 0000
000000a0: 1e1e 0ab6 9706 97b6 0000 0000 2004 7236
000000b0: 5dcd e836 0000 0000 f958 7db5 b5ae 2cb6
000000c0: 0000 0000 7b16 5732 8cd9 4e33 0000 0000
000000d0: 2685 bdb5 987a 57b6 0000 0000 958d f535
000000e0: e412 5236 0000 0000 7176 ab33 f20e 68b5
0.0 -3.1531843e-07 -1.6586733e-06 0.0 2.556565e-06 4.617902e-06 0.0 -6.6754075e-07
-2.0046778e-06 0.0 5.5644165e-07 9.408014e-07 0.0 -2.8061581e-06 -5.642334e-06 0.0
7.712823e-07 1.2333886e-06 0.0 -1.6713356e-07 -1.0460222e-06 0.0 2.7736946e-06 5.0215367e-06
0.0 -1.8982129e-06 -4.167855e-06 0.0 -7.9579905e-07 -2.2714767e-06 0.0 2.0697378e-06
3.6002891e-06 0.0 -9.1917684e-07 -2.4607266e-06 0.0 -1.0700235e-06 -2.302651e-06 0.0
-2.0581133e-06 -4.500918e-06 0.0 3.6063211e-06 6.938046e-06 0.0 -9.4379317e-07 -2.573169e-06
0.0 1.2519759e-08 4.816097e-08 0.0 -1.4120349e-06 -3.2108856e-06 0.0 1.8295128e-06
3.1303434e-06 0.0 7.9843524e-08 -8.6448483e-07

exp_avg_sq f4 [20, 3]
00000000: 0000 0000 80c5 8430 1139 a430 0000 0000
00000010: 8d3c 8b33 372c 8f33 0000 0000 35e0 9631
00000020: 00f3 a631 0000 0000 0964 7531 6851 7e31
00000030: 0000 0000 1a80 a333 0156 ab33 0000 0000
00000040: 1512 d331 6d0f d931 0000 0000 1524 9a2f
00000050: dc2d 2a30 0000 0000 7483 a033 b6ae aa33
00000060: 0000 0000 8a25 1633 05dd 1c33 0000 0000
00000070: 6a7b d631 b0ab f531 0000 0000 c559 3833
00000080: 651a 3d33 0000 0000 8abd 0f32 a3e2 2932
00000090: 0000 0000 65dd 4b32 03ae 5b32 0000 0000
000000a0: bfa0 3033 c204 4133 0000 0000 bf02 0634
000000b0: 8292 0f34 0000 0000 18f4 1532 6d89 2632
000000c0: 0000 0000 c87d 7a2d f58b 892d 0000 0000
000000d0: a6ca a832 7971 b432 0000 0000 55f3 0e33
000000e0: 1c78 1333 0000 0000 98f6 8f2e 5333 a12e
0.0 9.660397e-10 1.194879e-09 0.0 6.483706e-08 6.666999e-08 0.0 4.391064e-09
4.8588618e-09 0.0 3.5709056e-09 3.7008139e-09 0.0 7.6135805e-08 7.978452e-08 0.0
6.142964e-09 6.317285e-09 0.0 2.8038075e-10 6.191081e-10 0.0 7.474492e-08 7.9480216e-08
0.0 3.4958738e-08 3.6522597e-08 0.0 6.2422503e-09 7.149957e-09 0.0 4.2922483e-08
4.4028997e-08 0.0 8.366792e-09 9.888626e-09 0.0 1.18664945e-08 1.2787043e-08 0.0
4.112439e-08 4.494064e-08 0.0 1.2480722e-07 1.3371212e-07 0.0 8.728442e-09 9.693719e-09
0.0 1.4238784e-11 1.563725e-11 0.0 1.9649928e-08 2.100636e-08 0.0 3.328326e-08
3.4335343e-08 0.0 6.546691e-11 7.3305494e-11

exp_avg f4 [20]
00000000: dac9 17ba e57a 693a d72e 17ba 9627 2e39
00000010: e188 a0ba 9a7d 5139 7096 c6b9 149d 7e3a
00000020: de6a 80ba 2ede 26ba ef65 2d3a 1158 2eba
00000030: 3f7e 0bba b238 8aba 5da1 bc3a 2844 38ba
00000040: 91a0 8137 cd88 4bba 4f63 133a f837 d5b9
-0.0005790271 0.00089065573 -0.00057671726 0.0001660868 -0.0012247824 0.00019978583 -0.00037877588 0.00097127375
-0.0009797474 -0.0006365505 0.00066146156 -0.0006650696 -0.00053212413 -0.0010545461 0.0014391352 -0.0007029199
1.5452768e-05 -0.00077642204 0.0005622403 -0.00040668226

exp_avg_sq f4 [20]
00000000: 3027 5036 8ee0 fa36 b16e 5036 4f48 aa34
00000010: 4c20 6437 9451 e434 8863 bb35 580c 1237
00000020: a2a8 1237 b58d 7d36 2e06 8d36 6203 8b36
00000030: 0272 3836 8e78 2a37 6299 9d37 a65f 9936
00000040: d794 5732 eb4a bb36 2917 4c36 5988 d135
3.1017225e-06 7.476722e-06 3.1058846e-06 3.171758e-07 1.3597379e-05 4.2527665e-07 1.3961553e-06 8.705152e-06
8.741541e-06 3.7782422e-06 4.202847e-06 4.1429166e-06 2.7484498e-06 1.0160858e-05 1.8787283e-05 4.5708903e-06
1.2548489e-08 5.581756e-06 3.041185e-06 1.5611396e-06

exp_avg f4 [2, 20]
00000000: dc51 3a3a ca3a 24ba d246 283a 2ae0 07ba
00000010: f80f 303a fccc 2bba 741e 1e3a 6333 3cba
00000020: e125 343a 0619 2c3a 4aaa 2dba 4472 243a
00000030: 5aaa f839 26ca 173a d4b4 10ba 515b 313a
00000040: bb17 bc39 986e 243a e620 1cba 0d16 283a
00000050: dd51 3aba cb3a 243a d246 28ba 2be0 073a
00000060: f90f 30ba fecc 2b3a 721e 1eba 6433 3c3a
00000070: e225 34ba 0819 2cba 4caa 2d3a 4472 24ba
00000080: 5aaa f8b9 28ca 17ba d5b4 103a 515b 31ba
00000090: bd17 bcb9 986e 24ba e520 1c3a 0c16 28ba
0.0007107535 -0.0006264864 0.00064192445 -0.00051832444 0.0006716247 -0.00065536774 0.00060317595 -0.0007179288
0.00068720995 0.0006565008 -0.00066248013 0.00062731304 0.00047429168 0.00057903153 -0.00055201096 0.00067656214
0.00035875835 0.0006272583 -0.000595583 0.0006411977 -0.00071075355 0.00062648644 -0.00064192445 0.0005183245
-0.00067162473 0.00065536785 -0.00060317584 0.00071792887 -0.00068721 -0.0006565009 0.00066248025 -0.00062731304
-0.00047429168 -0.00057903165 0.000552011 -0.00067656214 -0.0003587584 -0.0006272583 0.00059558294 -0.00064119766

exp_avg_sq f4 [2, 20]
00000000: 746e d236 7869 8536 3989 a236 b5e0 8d36
00000010: 57af 8b36 f8f1 1637 2c27 a836 bc61 b236
00000020: 3cde 9a36 42a7 a336 a6b1 a736 834f 9336
00000030: 98eb 1a36 3f06 6036 3842 4536 c5c8 a836
00000040: 728d 2536 add5 8536 300c 9b36 6062 bf36
00000050: 736e d236 7969 8536 3889 a236 b6e0 8d36
00000060: 58af 8b36 f8f1 1637 2b27 a836 be61 b236
00000070: 3ede 9a36 3fa7 a336 a4b1 a736 814f 9336
00000080: 97eb 1a36 4006 6036 3a42 4536 c2c8 a836
00000090: 728d 2536 add5 8536 310c 9b36 6662 bf36
6.271346e-06 3.975987e-06 4.843951e-06 4.228287e-06 4.162935e-06 8.9970345e-06 5.0113504e-06 5.316191e-06
4.615429e-06 4.87725e-06 4.997669e-06 4.390198e-06 2.3084922e-06 3.3382237e-06 2.9393832e-06 5.030163e-06
2.4669248e-06 3.988584e-06 4.620779e-06 5.703696e-06 6.2713457e-06 3.9759875e-06 4.8439506e-06 4.2282873e-06
4.1629355e-06 8.9970345e-06 5.01135e-06 5.316192e-06 4.61543e-06 4.8772486e-06 4.997668e-06 4.390197e-06
2.308492e-06 3.338224e-06 2.9393836e-06 5.0301614e-06 2.4669248e-06 3.988584e-06 4.6207792e-06 5.7036987e-06

exp_avg f4 [2]
00000000: 2921 acbc 2a21 ac3c
-0.021011906 0.021011908

exp_avg_sq f4 [2]
00000000: 3991 793b 3a91 793b
0.0038080944 0.0038080947

exp_avg f4 [20, 3]
00000000: 0000 0000 8f9a d232 97ba 45b5 0000 0000
00000010: f519 5a32 1585 42b5 0000 0000 4550 bfad
00000020: dbd0 b0b0 0000 0000 73f1 0633 caa9 69b5
00000030: 0000 0000 ff63 8aad d376 fdb0 0000 0000
00000040: 15a1 112f 1c35 1d30 0000 0000 6d4d 1233
00000050: 404c 29b5 0000 0000 0d42 6c30 3056 05b4
00000060: 0000 0000 8d3d 2332 9e45 96b4 0000 0000
00000070: dbbc 6e32 661e 1cb4 0000 0000 a9cd 02b1
00000080: 5d04 2f33 0000 0000 5d5e 7cb2 e4e7 8234
00000090: 0000 0000 0fde 8033 5831 5cb5 0000 0000
000000a0: aff5 2cb2 691f ea34 0000 0000 26a2 cbb2
000000b0: f844 fb34 0000 0000 eb10 01ae d8c5 bab0
000000c0: 0000 0000 3994 bb2e ccc5 6730 0000 0000
000000d0: 2e90 b82e d532 7330 0000 0000 c230 3f32
000000e0: 243a 5db5 0000 0000 d3a4 352f 9d2a b42f
0.0 2.4517503e-08 -7.365974e-07 0.0 1.2695172e-08 -7.246429e-07 0.0 -2.1749833e-11
-1.2865046e-09 0.0 3.1418903e-08 -8.704634e-07 0.0 -1.573319e-11 -1.8441945e-09 0.0
1.3244901e-10 5.719174e-10 0.0 3.4063692e-08 -6.3068364e-07 0.0 8.5950164e-10 -1.2417945e-07
0.0 9.501844e-09 -2.799033e-07 0.0 1.3896364e-08 -1.4539691e-07 0.0 -1.9034394e-09
4.074933e-08 0.0 -1.4689786e-08 2.438311e-07 0.0 6.000857e-08 -8.202819e-07 0.0
-1.006758e-08 4.360875e-07 0.0 -2.3706047e-08 4.6802575e-07 0.0 -2.934623e-11 -1.3589512e-09
0.0 8.530105e-11 8.4318397e-10 0.0 8.392963e-11 8.847512e-10 0.0 1.11287495e-08
-8.241352e-07 0.0 1.6520411e-10 3.2772088e-10

exp_avg_sq f4 [20, 3]
00000000: 0000 0000 f235 cb2c e0ca ff2d 0000 0000
00000010: 3fd1 d92b 3ed1 cb2d 0000 0000 d609 3324
00000020: dbcb 4e25 0000 0000 6e20 262d 4ea3 392e
00000030: 0000 0000 43a8 fb25 1df4 5226 0000 0000
00000040: 5604 cc26 d57e e226 0000 0000 b4c0 442d
00000050: 6bce 002e 0000 0000 a9bd f827 d2e6 242b
00000060: 0000 0000 3084 812b f135 9a2c 0000 0000
00000070: b0c0 0a2c 126f 582c 0000 0000 b2d1 9029
00000080: eaa5 3d2a 0000 0000 c4f4 1c2c 30a5 b32c
00000090: 0000 0000 9798 182e 9d12 8f2e 0000 0000
000000a0: 0911 8c2b 1b87 1b2d 0000 0000 070a c22c
000000b0: 955e 872d 0000 0000 cf1d 6624 ed10 8225
000000c0: 0000 0000 1f77 ac26 56c8 c326 0000 0000
000000d0: ae1e b826 a8d3 d026 0000 0000 f2d4 a72b
000000e0: 590d f82d 0000 0000 db73 0327 558e 1027
0.0 5.775596e-12 2.9080238e-11 0.0 1.5476855e-12 2.317135e-11 0.0 3.882277e-17
1.7936721e-16 0.0 9.443208e-12 4.2209174e-11 0.0 4.3655578e-16 7.318922e-16 0.0
1.4156519e-15 1.5716278e-15 0.0 1.1184099e-11 2.9287166e-11 0.0 6.9039457e-15 5.858483e-13
0.0 9.202691e-13 4.382932e-12 0.0 1.9717943e-12 3.0757103e-12 0.0 6.431261e-14
1.6844135e-13 0.0 2.2304806e-12 5.1058255e-12 0.0 3.4696326e-11 6.5061935e-11 0.0
9.952327e-13 8.840729e-12 0.0 5.514925e-12 1.5389726e-11 0.0 4.989855e-17 2.2562875e-16
0.0 1.1967185e-15 1.3585144e-15 0.0 1.277588e-15 1.4490269e-15 0.0 1.1925168e-12
2.8200263e-11 0.0 1.8242707e-15 2.0061173e-15

exp_avg f4 [20]
00000000: 9b17 aeb9 78a8 a8b9 acb1 18b5 b64a ceb9
00000010: 19ae 59b5 e5e3 5b34 f30a 98b9 c4e9 64b8
00000020: c660 04b9 48b0 91b8 c0f0 9b37 937f ec38
00000030: 1155 c9b9 c419 4c39 bbf1 6039 d260 1fb5
00000040: 840a b834 9425 c234 870e bfb9 54ab b233
-0.00033205454 -0.00032168976 -5.688296e-07 -0.00039347046 -8.1092145e-07 2.0478872e-07 -0.00028999857 -5.4577147e-05
-0.00012624552 -6.946974e-05 1.8589548e-05 0.000112771195 -0.00038401087 0.00019464554 0.00021452356 -5.937301e-07
3.4280322e-07 3.6162658e-07 -0.00036441183 8.319935e-08

exp_avg_sq f4 [20]
00000000: 10ba 9236 74e7 8936 f040 eb2d 1d6d cd36
00000010: 1927 6d2e 91e2 bd2d 6116 6036 2e0a f433
00000020: 56a7 2f35 f48c 5734 fe87 ac32 f191 0c35
00000030: e325 c436 6d83 ca35 6f36 f635 e49d 0f2e
00000040: 6e62 cb2d 4287 d32d 3c14 b136 74e4 c82d
4.3727996e-06 4.109863e-06 2.6745245e-11 6.1221785e-06 5.3922287e-11 2.1587428e-11 3.3391627e-06 1.1363987e-07
6.5436086e-07 2.0074714e-07 2.0085277e-08 5.2366437e-07 5.845666e-06 1.5088423e-06 1.834427e-06 3.265467e-11
2.312214e-11 2.404799e-11 5.2773667e-06 2.2838821e-11

exp_avg f4 [1, 20]
00000000: 0db2 2437 4045 1a37 b2e6 69b5 c54b 2e37
00000010: 767e 17b5 1377 8b35 147d 2e37 a2da 98b8
00000020: 76e8 de36 a250 2c37 5e41 34b6 8825 00b7
00000030: 9308 2237 2792 43b7 db95 31b7 e80d 1eb5
00000040: 5cc7 6b35 b026 8835 3574 0737 499a 1236
9.816617e-06 9.195239e-06 -8.713497e-07 1.038885e-05 -5.643591e-07 1.0390962e-06 1.040033e-05 -7.288648e-05
6.6431776e-06 1.0270773e-05 -2.6860139e-06 -7.638133e-06 9.657949e-06 -1.16569345e-05 -1.0584913e-05 -5.8879823e-07
8.783443e-07 1.0144049e-06 8.073684e-06 2.18455e-06

exp_avg_sq f4 [1, 20]
00000000: 1090 9e31 9164 8d31 7546 0f2f f851 af31
00000010: 32c9 c82d 6f7d 0130 061b b131 54e4 5a34
00000020: ea5e 2331 5e7e c431 2c0b 3a30 248a 4f31
00000030: df88 a031 a108 da31 d6d2 b531 184f 9c2e
00000040: 317e b62f b43a d62f 3100 6331 c5d9 ea30
4.6147832e-09 4.115073e-09 1.3030806e-10 5.102489e-09 2.2826716e-11 4.710818e-10 5.15445e-09 2.0385897e-07
2.3773574e-09 5.718717e-09 6.768228e-10 3.0200988e-09 4.6721733e-09 6.345616e-09 5.2917626e-09 7.1081085e-11
3.3195272e-10 3.8968084e-10 3.3032956e-09 1.7087635e-09

network_body._body_endoder.seq_layers.0.weight f4 [20, 3]
00000000: 297d 18bf 0f50 e9be c0e4 3f3e f683 293f
00000010: c11c 2abf f97a 283c 36f0 eb3e 3622 e33d
00000020: 09cc 63bf b34d 1ebe c300 e8be 8c92 7d3e
00000030: 699d d6be fbb1 6e3d 9013 3cbe abdf b23e
00000040: 7d7e a3be 5e6b 803f 0649 7b3f c8d5 6dbe
00000050: 15d2 d03e 7a19 3dbe 1344 82be bb2a 2cbf
00000060: 004c b4bf 7983 abbe 9554 9e3d 36e3 1f3c
00000070: 30f9 2c3f 6c30 103f 1eed 3b3e d318 603e
00000080: 033b 7fbe 6d60 323f 2679 8ebe e10c 143f
00000090: 6101 0d3f c35a 823f 665b d5be 864a cabe
000000a0: 2ac4 8abe f2be 68be 30f2 c1be 9ea4 46be
000000b0: d878 993e fa5b 733f 6521 38be d98d 2cbe
000000c0: 0f42 83bf c765 cf3e 9d80 243e 4769 b83d
000000d0: cba6 063f 5eac b03d b6fe 93bd a699 33be
000000e0: 5b39 18bf 7209 763e 0a53 b33d ef72 8a3f
-0.5956598 -0.45568892 0.18739605 0.6621698 -0.66450125 0.010283225 0.46081704 0.110905096
-0.8898321 -0.15459327 -0.4531308 0.24762934 -0.4191697 0.058275204 -0.18366838 0.3493627
-0.3193244 1.0032766 0.981583 -0.23226082 0.4078528 -0.1846675 -0.25442562 -0.672527
-1.4085693 -0.33498743 0.077309765 0.009758761 0.6756773 0.56323886 0.18352172 0.2188447
-0.24924855 0.69678384 -0.27826804 0.5783215 0.5508023 1.0183948 -0.41671294 -0.39509982
-0.27102786 -0.2272909 -0.37880087 -0.19398734 0.2997501 0.9506222 -0.17981489 -0.16850986
-1.0254534 0.40507337 0.16064687 0.09004455 0.52598256 0.086266264 -0.07226317 -0.17539081
-0.5946252 0.2402704 0.08756073 1.0816325

network_body._body_endoder.seq_layers.0.bias f4 [20]
00000000: ec30 0d3c 3c8c 0a3c 2553 903a 663d 133c
00000010: 0577 bab7 5812 8bba 5ffe 0d3c 39c6 84bd
00000020: aa20 c73b 3b06 093c 7a60 0ebb be0d 0bbc
00000030: 5c3e 233c 85d9 28bc 8e23 2cbc b249 42b9
00000040: 1329 1e3a ca97 693a 090d 113c 13f4 d4b8
0.008617621 0.008456286 0.0011011107 0.0089868065 -2.222835e-05 -0.0010610325 0.008666604 -0.064831205
0.006076892 0.008363302 -0.0021724985 -0.008487163 0.009963598 -0.010305767 -0.010506524 -0.00018528735
0.0006033342 0.0008910863 0.0088532055 -0.0001015441

value_heads.value_heads.extrinsic.weight f4 [1, 20]
00000000: 7167 95be 7ad2 90be b498 64b9 29e9 b0be
00000010: 574d 00ba 6123 18b8 9d71 82be f949 52bd
00000020: 755a e4bd 6241 7bbd 630c 8a3c 6ca9 ce3d
00000030: 84c5 acbe 99b2 323e a8b6 443e acfe 9ab9
00000040: 6ed7 c538 edf2 e138 bc2f a4be 4e5a 0eb9
-0.29180482 -0.2828558 -0.00021800661 -0.34552887 -0.0004894337 -3.6272573e-05 -0.25477305 -0.051340077
-0.11150066 -0.06134165 0.01685161 0.100909084 -0.33744442 0.17450942 0.19210303 -0.00029562914
9.433819e-05 0.000107740845 -0.32067668 -0.00013575816
