JumperExercise/Learning/results/Jumper00001/Jumper/checkpoint.pt (torch, 12808 bytes, 21 tensors)

network_body._body_endoder.seq_layers.0.weight f4 [20, 3]
-0.15471764 0.6644522 0.08204463 -1.1225232 1.2412987 -0.0986017 0.37551683 -0.4764874
-1.1051111 0.17699474 -0.05872966 0.011473665 -0.60450906 0.11126145 -0.0756245 -0.9580422
0.12783122 -0.51964366 0.58989125 -0.18935226 0.21911518 -0.048819467 -1.1198523 -0.11833782
-0.5990372 0.7928298 0.09698654 0.4621682 0.6685006 -0.7336525 -0.6571881 0.09353412
0.103076704 -1.1507087 -0.9214644 0.28758413 -0.18274316 0.23884368 0.69837755 -0.18496595
1.1206712 -0.29245996 -0.22981936 0.63349384 -0.2553854 -0.66469574 -0.23935488 -0.8541205
-0.3465235 0.36071286 0.41221112 0.53089666 0.60322636 -0.04504546 0.14573927 -1.0935322
-0.31698048 -1.3206517 0.02088649 -0.74552304
00000000: 4d6e 1ebe 8a19 2a3f 0407 a83d d7ae 8fbf
00000010: e0e2 9e3f b0ef c9bd be43 c03e 28f6 f3be
00000020: 4874 8dbf 1c3e 353e 838e 70bd 0afc 3b3c
00000030: 1bc1 1abf 0bdd e33d 05e1 9abd 4142 75bf
00000040: 30e6 023e 5e07 05bf 1d03 173f 8fe5 41be
00000050: bb5f 603e ecf6 47bd 5257 8fbf 195b f2bd
00000060: 805a 19bf e5f6 4a3f e1a0 c63d 4fa1 ec3e
00000070: db22 2b3f a6d0 3bbf 7b3d 28bf d18e bf3d
00000080: e119 d33d 6c4a 93bf 17e5 6bbf 3a3e 933e
00000090: 0621 3bbe 7093 743e dfc8 323f b767 3dbe
000000a0: 2772 8f3f 50bd 95be c455 6bbe a72c 223f
000000b0: e0c1 82be 8029 2abf 7219 75be a4a7 5abf
000000c0: 876b b1be 5baf b83e 560d d33e d8e8 073f
000000d0: 0b6d 1a3f 9781 38bd ad3c 153e ddf8 8bbf
000000e0: 444b a2be 1d0b a9bf 251a ab3c 99da 3ebf

network_body._body_endoder.seq_layers.0.bias f4 [20]
0.009323559 -0.0075479024 -0.014163678 -0.0065287007 -0.004473388 -0.0113288965 0.0070567694 0.011816206
-0.010531409 0.0103396475 0.016230103 -0.009866868 0.008112147 -0.024532953 -0.013486631 -0.008558985
0.009026995 -0.0081123235 -0.009236712 -0.0072171576
00000000: d7c1 183c 6554 f7bb c50e 68bc b6ee d5bb
00000010: 8095 92bb d69c 39bc 793c e73b c398 413c
00000020: ee8b 2cbc a067 293c fef4 843c a5a8 21bc
00000030: d0e8 043c 55f9 c8bc 08f7 5cbc fc3a 0cbc
00000040: f6e5 133c 8de9 04bc 9455 17bc e87d ecbb

action_model._discrete_distribution.branches.0.weight f4 [2, 20]
0.011627772 -0.025864454 -0.0017338528 -0.034222547 -0.013252354 -0.00084742304 0.021227244 -0.0046275505
0.005120459 -0.009829191 0.013252686 -0.010486233 0.015118638 0.0031761006 -5.911381e-05 -0.021861475
-0.018864948 -0.017629184 -0.0014249164 -0.03317991 -0.0056779743 0.029982323 -0.00018172771 0.037086487
0.022994678 0.014875879 -0.036229372 -0.009720697 0.013401437 -0.0070768734 0.019141741 0.0065507125
-0.015822502 -0.0030340762 0.0021385355 0.007828996 -0.039290912 0.027775887 0.018566497 0.041469853
00000000: 6982 3e3c b1e1 d3bc 7242 e3ba f12c 0cbd
00000010: 6720 59bc 9925 5eba c2e4 ad3c b5a2 97bb
00000020: 86c9 a73b 9d0a 21bc cb21 593c 73ce 2bbc
00000030: 2ab4 773c 2026 503b f8f0 77b8 d616 b3bc
00000040: aa8a 9abc 146b 90bc 43c4 baba a8e7 07bd
00000050: 4d0e babb 7d9d f53c 298e 3eb9 00e8 173d
00000060: 565f bc3c f5b9 733c 4065 14bd 8f43 1fbc
00000070: b391 5b3c 1ee5 e7bb 24cf 9c3c 5ca7 d63b
00000080: 319e 81bc 5ad7 46bb ac26 0c3b 3045 003c
00000090: 82ef 20bd 428a e33c c418 983c 4bdc 293d

action_model._discrete_distribution.branches.0.bias f4 [2]
0.0065773996 -0.006577399
00000000: 3a87 d73b 3987 d7bb

exp_avg f4 [20, 3]
0.0 -8.4178805e-07 -1.1094029e-06 0.0 3.1877169e-06 4.0456503e-06 0.0 -3.6948555e-09
1.4540829e-08 0.0 1.9821832e-06 3.076643e-06 0.0 1.0977113e-06 1.6543037e-06 0.0
2.750267e-07 5.106604e-07 0.0 -1.7465205e-06 -2.6395744e-06 0.0 -3.5295658e-09 -7.9928405e-08
0.0 4.4278542e-07 5.684528e-07 0.0 8.19969e-08 1.2968236e-07 0.0 2.23984e-07
3.2335907e-07 0.0 1.956082e-07 4.5324495e-07 0.0 -1.6384404e-06 -2.1196358e-06 0.0
-3.1406216e-07 -4.12338e-07 0.0 8.544201e-08 1.1463683e-07 0.0 7.45416e-08 5.256414e-07
0.0 -1.0082822e-06 -1.3247763e-06 0.0 2.0414634e-06 2.7371673e-06 0.0 -3.2231682e-08
2.7053127e-07 0.0 7.19222e-07 1.8615053e-06
00000000: 0000 0000 3cf7 61b5 cbe6 94b5 0000 0000
00000010: 8fec 5536 dfbf 8736 0000 0000 96e8 7db1
00000020: 3ecf 7932 0000 0000 a605 0536 5378 4e36
00000030: 0000 0000 1355 9335 7109 de35 0000 0000
00000040: 62a7 9334 5114 0935 0000 0000 fd69 eab5
00000050: 8b23 31b6 0000 0000 c78c 72b1 1ba5 abb3
00000060: 0000 0000 f7b7 ed34 c797 1835 0000 0000
00000070: 4616 b033 d13e 0b34 0000 0000 4180 7034
00000080: 229a ad34 0000 0000 5f08 5234 8355 f334
00000090: 0000 0000 62e8 dbb5 113f 0eb6 0000 0000
000000a0: 609c a8b4 4e5f ddb4 0000 0000 3e7c b733
000000b0: 442e f633 0000 0000 ae13 a033 cd19 0d35
000000c0: 0000 0000 5054 87b5 f8ce b1b5 0000 0000
000000d0: 1300 0936 2db0 3736 0000 0000 1c6f 0ab3
000000e0: 893d 9134 0000 0000 8f10 4135 d6d8 f935

exp_avg_sq f4 [20, 3]
0.0 1.0659597e-09 1.0674701e-09 0.0 7.664395e-09 7.668668e-09 0.0 1.2708554e-12
2.688854e-12 0.0 1.0863683e-09 1.1038805e-09 0.0 2.5580965e-10 2.6325725e-10 0.0
9.397808e-11 9.742392e-11 0.0 7.0526973e-10 7.198825e-10 0.0 3.688941e-14 1.5563206e-12
0.0 4.5501436e-10 4.5568732e-10 0.0 4.591343e-11 4.7194713e-11 0.0 6.3704264e-11
6.5347006e-11 0.0 6.256848e-11 6.578746e-11 0.0 2.5996039e-09 2.6018516e-09 0.0
1.4591169e-11 1.45313666e-11 0.0 2.2189628e-10 2.2351199e-10 0.0 6.3434652e-12 1.2503287e-11
0.0 1.3371392e-09 1.3389113e-09 0.0 3.892029e-09 3.8982098e-09 0.0 1.3928248e-12
5.344623e-12 0.0 3.991264e-10 4.2151568e-10
00000000: 0000 0000 1f81 9230 44b6 9230 0000 0000
00000010: 5eac 0332 29bf 0332 0000 0000 64db b22b
00000020: 1636 3d2c 0000 0000 304f 9530 58b7 9730
00000030: 0000 0000 02a2 8c2f 2aba 902f 0000 0000
00000040: f5a8 ce2e cb3c d62e 0000 0000 f2dc 4130
00000050: 3ae1 4530 0000 0000 9822 2629 5c08 db2b
00000060: 0000 0000 9425 fa2f 4a84 fa2f 0000 0000
00000070: eded 492e 8690 4f2e 0000 0000 5016 8c2e
00000080: 18b3 8f2e 0000 0000 ec96 892e 0cab 902e
00000090: 0000 0000 b7a4 3231 42cc 3231 0000 0000
000000a0: 6458 802d 75a3 7f2d 0000 0000 40fa 732f
000000b0: 08c1 752f 0000 0000 db30 df2c ccf5 5b2d
000000c0: 0000 0000 67c6 b730 c104 b830 0000 0000
000000d0: a6ba 8531 04f1 8531 0000 0000 cd05 c42b
000000e0: 160c bc2c 0000 0000 0c6c db2f 0fbb e72f

exp_avg f4 [20]
-0.00011048036 0.00035523868 7.2025136e-06 0.00045093196 0.00022936062 9.669528e-05 -0.00036802434 -3.1135896e-05
5.192896e-05 2.0008034e-05 4.1403353e-05 0.0001056658 -0.0001989781 -4.0893126e-05 1.18116695e-05 0.00018497616
-0.00013072103 0.00028742492 0.00012398773 0.00046926038
00000000: b1b1 e7b8 543f ba39 1fad f136 106b ec39
00000010: 8680 7039 e2c8 ca38 64f3 c0b9 ea97 02b8
00000020: 4cce 5938 edd6 a737 83a8 2d38 e598 dd38
00000030: c7a4 50b9 a984 2bb8 bc2a 4637 29f6 4139
00000040: 2912 09b9 85b1 9639 b402 0239 1007 f639

exp_avg_sq f4 [20]
6.275101e-07 2.6843256e-06 3.1468505e-07 4.040401e-06 1.4210405e-06 7.6251683e-07 3.0591495e-06 3.3474242e-07
1.9031728e-07 2.563044e-07 2.9194362e-07 7.65102e-07 1.2302269e-06 1.00856505e-08 2.9967455e-07 1.4061076e-06
7.6229543e-07 2.316608e-06 8.732038e-07 5.5787264e-06
00000000: 2a72 2835 5d24 3436 fcf1 a834 c892 8736
00000010: 94ba be35 c2af 4c35 ca4b 4d36 a6b6 b334
00000020: 045a 4c34 359a 8934 6dbc 9c34 6961 4d35
00000030: 461e a535 2945 2d32 f5e2 a034 7db9 bc35
00000040: 8ba0 4c35 0677 1b36 1c66 6a35 e530 bb36

exp_avg f4 [2, 20]
-9.00099e-05 -2.8737336e-06 0.00012194214 4.1040686e-05 2.715283e-05 8.8214874e-05 -4.7926274e-05 -5.6896963e-05
2.763343e-05 -5.3288702e-05 -0.00011309062 7.013021e-05 -0.00010137083 0.00012869605 7.619328e-05 8.22769e-05
-9.449875e-05 3.0100771e-05 7.857267e-05 6.9668284e-05 9.00099e-05 2.8737327e-06 -0.000121942125 -4.1040683e-05
-2.715283e-05 -8.821487e-05 4.7926278e-05 5.6896955e-05 -2.7633425e-05 5.328871e-05 0.00011309058 -7.0130205e-05
0.00010137084 -0.00012869606 -7.619328e-05 -8.227691e-05 9.449875e-05 -3.0100768e-05 -7.857268e-05 -6.9668284e-05
00000000: b2c3 bcb8 5eda 40b6 30bb ff38 1a23 2c38
00000010: 42c6 e337 0000 b938 7204 49b8 a6a4 6eb8
00000020: 57ce e737 4f82 5fb8 102b edb8 df12 9338
00000030: 0d97 d4b8 95f2 0639 f5c9 9f38 138c ac38
00000040: a12d c6b8 ea80 fc37 62c7 a438 e01a 9238
00000050: b2c3 bc38 5ada 4036 2ebb ffb8 1923 2cb8
00000060: 42c6 e3b7 ffff b8b8 7304 4938 a4a4 6e38
00000070: 54ce e7b7 5182 5f38 0b2b ed38 de12 93b8
00000080: 0e97 d438 96f2 06b9 f5c9 9fb8 148c acb8
00000090: a12d c638 e880 fcb7 63c7 a4b8 e01a 92b8

exp_avg_sq f4 [2, 20]
7.5146903e-07 1.7679021e-06 4.463582e-07 1.9192544e-07 1.5156917e-07 2.9883546e-07 2.1613874e-07 3.5118165e-07
1.0230881e-06 1.3134235e-07 2.8172903e-07 2.8657175e-07 1.1889668e-06 8.9269315e-07 3.3240192e-07 3.7297286e-07
8.117985e-07 4.318011e-07 3.6012162e-07 3.1081362e-07 7.5146903e-07 1.7679018e-06 4.4635811e-07 1.9192542e-07
1.5156918e-07 2.988355e-07 2.1613874e-07 3.5118165e-07 1.0230881e-06 1.3134235e-07 2.8172906e-07 2.8657175e-07
1.1889668e-06 8.9269304e-07 3.3240192e-07 3.7297283e-07 8.117984e-07 4.318011e-07 3.601216e-07 3.1081362e-07
00000000: 8fb8 4935 a748 ed35 01a3 ef34 1014 4e34
00000010: 04bf 2234 a26f a034 c413 6834 0a8a bc34
00000020: 0a51 8935 1c07 0d34 8b40 9734 1fda 9934
00000030: 9794 9f35 68a1 6f35 f974 b234 003d c834
00000040: 5eea 5935 4bd2 e734 bd56 c134 e6dd a634
00000050: 8fb8 4935 a548 ed35 fea2 ef34 0f14 4e34
00000060: 05bf 2234 a36f a034 c413 6834 0a8a bc34
00000070: 0a51 8935 1c07 0d34 8c40 9734 1fda 9934
00000080: 9794 9f35 66a1 6f35 f974 b234 ff3c c834
00000090: 5cea 5935 4bd2 e734 bc56 c134 e6dd a634

exp_avg f4 [2]
-0.012768824 0.012768825
00000000: 5434 51bc 5534 513c

exp_avg_sq f4 [2]
0.0029378224 0.0029378221
00000000: 7b88 403b 7a88 403b

exp_avg f4 [20, 3]
0.0 3.2945067e-08 -4.2780266e-07 0.0 3.1888685e-08 -4.9568996e-07 0.0 -5.0551215e-08
7.4374026e-07 0.0 1.18173894e-07 -1.2710732e-06 0.0 -4.0686484e-08 5.295112e-07 0.0
-7.60609e-08 8.0652603e-07 0.0 2.953431e-09 -1.9705752e-07 0.0 -3.447838e-09 9.683586e-08
0.0 -1.0524659e-08 2.3321098e-07 0.0 2.5123235e-08 -1.2965854e-06 0.0 1.15208176e-10
-1.626572e-08 0.0 -6.933627e-08 1.1661014e-06 0.0 -5.2089753e-08 6.751129e-07 0.0
2.1260004e-08 -5.674158e-07 0.0 1.3713446e-08 -2.529086e-07 0.0 -1.33982985e-08 7.737375e-07
0.0 1.5778692e-08 -8.0728194e-07 0.0 -1.3756896e-09 8.073657e-07 0.0 5.5735228e-08
-8.9552873e-07 0.0 -3.473105e-08 7.4396473e-07
00000000: 0000 0000 7c7f 0d33 c0ac e5b4 0000 0000
00000010: fbf5 0833 8e0f 05b5 0000 0000 a61d 59b3
00000020: 71a5 4735 0000 0000 c9c6 fd33 be99 aab5
00000030: 0000 0000 43bf 2eb3 bc23 0e35 0000 0000
00000040: ec56 a3b3 0c80 5835 0000 0000 4ff5 4a31
00000050: c296 53b4 0000 0000 02ef 6cb1 14f4 cf33
00000060: 0000 0000 f1cf 34b2 8c68 7a34 0000 0000
00000070: 94ce d732 5606 aeb5 0000 0000 7058 fd2e
00000080: b2b8 8bb2 0000 0000 04e6 94b3 f082 9c35
00000090: 0000 0000 4ab9 5fb3 6839 3535 0000 0000
000000a0: 3e9f b632 8450 18b5 0000 0000 6098 6b32
000000b0: 7ec7 87b4 0000 0000 572e 66b2 d6b2 4f35
000000c0: 0000 0000 b689 8732 feb3 58b5 0000 0000
000000d0: c612 bdb0 c0b9 5835 0000 0000 8861 6f33
000000e0: 4464 70b5 0000 0000 312b 15b3 deb4 4735

exp_avg_sq f4 [20, 3]
0.0 1.5553828e-09 1.5653497e-09 0.0 1.4785736e-09 1.490627e-09 0.0 5.296719e-09
5.3295013e-09 0.0 2.3418789e-08 2.3526681e-08 0.0 3.5179157e-09 3.5364225e-09 0.0
1.1412414e-08 1.1460899e-08 0.0 2.0052779e-11 2.1241314e-11 0.0 1.2631758e-11 1.2981047e-11
0.0 2.927668e-10 2.959335e-10 0.0 1.0431732e-09 1.0909064e-09 0.0 2.3307804e-13
2.5524382e-13 0.0 9.7190895e-09 9.7912425e-09 0.0 5.621159e-09 5.6508753e-09 0.0
8.668407e-10 8.802173e-10 0.0 2.439934e-10 2.4686883e-10 0.0 3.406777e-10 3.5715944e-10
0.0 4.3165635e-10 4.5065143e-10 0.0 6.9488295e-12 1.9727959e-11 0.0 4.849065e-09
4.8885305e-09 0.0 2.6094669e-09 2.6359424e-09
00000000: 0000 0000 2bc5 d530 d923 d730 0000 0000
00000010: af36 cb30 c6de cc30 0000 0000 6ffe b531
00000020: ca1e b731 0000 0000 762a c932 b817 ca32
00000030: 0000 0000 d4bf 7131 6705 7331 0000 0000
00000040: 5410 4432 91e5 4432 0000 0000 d862 b02d
00000050: 30d7 ba2d 0000 0000 6138 5e2d 705d 642d
00000060: 0000 0000 44f3 a02f f0b0 a22f 0000 0000
00000070: 655f 8f30 dbee 9530 0000 0000 1636 832a
00000080: 83b0 8f2a 0000 0000 02f9 2632 5736 2832
00000090: 0000 0000 3d24 c131 a029 c231 0000 0000
000000a0: 7e46 6e30 c9f3 7130 0000 0000 0523 862f
000000b0: b3b7 872f 0000 0000 204a bb2f b959 c42f
000000c0: 0000 0000 3b4e ed2f 8dbf f72f 0000 0000
000000d0: 7e7d f42c 6a87 ad2d 0000 0000 d49c a631
000000e0: f8f7 a731 0000 0000 3a52 3331 fd23 3531

exp_avg f4 [20]
-0.00018193093 -0.00020829334 0.0003138063 -0.0005487779 0.0002252452 0.00034874087 -7.8934536e-05 3.9463375e-05
9.607994e-05 -0.00052203005 -6.436763e-06 0.00048808262 0.00028736138 -0.00023234621 -0.00010514676 0.00031089643
-0.00032502032 0.00031948558 -0.00037562812 0.0003074815
00000000: b6c4 3eb9 5169 5ab9 5e86 a439 dddb 0fba
00000010: cc2f 6c39 35d7 b639 a889 a5b8 7a85 2538
00000020: 867e c938 d8d8 08ba 60fb d7b6 57e5 ff39
00000030: fea8 9639 f6a1 73b9 3d82 dcb8 d0ff a239
00000040: 7d67 aab9 a180 a739 f4ef c4b9 7835 a139

exp_avg_sq f4 [20]
7.8523004e-07 1.0398403e-06 2.3696632e-06 7.1026097e-06 1.2234026e-06 2.907103e-06 1.6326248e-07 4.533185e-08
2.729803e-07 6.5072236e-06 2.591572e-09 5.715255e-06 1.9841953e-06 1.3603722e-06 2.854778e-07 2.3166192e-06
2.55636e-06 2.4325423e-06 3.360083e-06 2.3481075e-06
00000000: 99c8 5235 a490 8b35 8106 1f36 f452 ee36
00000010: cb33 a435 a617 4336 404d 2f34 e5b2 4233
00000020: 208e 9234 a058 da36 6b17 3231 abc5 bf36
00000030: 3728 0536 0896 b635 c543 9934 3777 1b36
00000040: ee8d 2b36 c23e 2336 c97d 6136 2e94 1d36

exp_avg f4 [1, 20]
8.399007e-06 7.267698e-06 -6.357964e-06 1.1996355e-05 -8.0606715e-06 -6.7653737e-06 4.1774624e-06 -6.5903178e-06
-5.053418e-06 6.252578e-06 2.0449195e-06 -6.4507594e-06 -4.5259967e-06 6.726041e-06 6.9191547e-06 -6.36361e-06
4.504259e-06 -5.0929175e-06 7.048434e-06 -6.7398983e-06
00000000: 76e9 0c37 0ddd f336 7f56 d5b6 f443 4937
00000010: 523c 07b7 1e02 e3b6 212c 8c36 6622 ddb6
00000020: 8890 a9b6 3ccd d136 733b 0936 9a73 d8b6
00000030: 04de 97b6 41b0 e136 162b e836 fe86 d5b6
00000040: 4a23 9736 d4e3 aab6 9681 ec36 4927 e2b6

exp_avg_sq f4 [1, 20]
3.1492085e-08 8.719481e-09 1.6903806e-08 2.7082575e-07 3.7322863e-08 2.927275e-07 4.5594897e-09 1.8765165e-09
6.316078e-10 3.978204e-09 5.6186353e-09 7.1292408e-09 3.938231e-08 1.2677176e-09 1.8346465e-09 4.105711e-09
3.6575867e-09 6.3942287e-09 7.417412e-09 1.3454674e-09
00000000: ea41 0733 afcc 1532 dd33 9132 0266 9134
00000010: ec4c 2033 2928 9d34 b2a9 9c31 07f4 0031
00000020: 739d 2d30 a7b0 8831 0a0e c131 77f5 f431
00000030: 4f25 2933 d93b ae30 e326 fc30 3712 8d31
00000040: f258 7b31 3bb4 db31 3fdc fe31 6deb b830

network_body._body_endoder.seq_layers.0.weight f4 [20, 3]
0.92917967 0.7605716 0.15118454 -0.4881289 0.55747175 -0.026759697 0.3489516 -0.000776525
0.6697889 0.3565166 0.87604564 1.2538507 1.2901287 0.7581317 0.17598912 -0.16371307
1.0707604 1.0906488 -0.4768854 -0.47116575 -0.22552161 0.055327978 0.6604863 -0.9268807
0.60417885 -0.18047187 0.17508808 0.6783303 -0.9433658 0.38980484 0.9558057 -0.6443986
-0.34542125 0.22814444 -0.026220122 0.47212738 -0.38148862 -0.6040816 1.5648762 0.053579763
-0.47216547 0.35327792 -0.26789445 -0.09538505 0.3036687 -0.420657 -0.18503915 -0.4130618
0.5383062 -0.2846727 -0.2666664 0.39532235 -0.9077527 -0.26413432 0.24009605 0.600746
-0.10703073 -0.81499463 0.115612686 0.0008390577
00000000: b8de 6d3f d2b4 423f 1fd0 1a3e 08ec f9be
00000010: 78b6 0e3f 2737 dbbc c9a9 b23e b68f 4bba
00000020: 4977 2b3f 5889 b63e 8744 603f 2e7e a03f
00000030: f022 a53f eb14 423f 7e36 343e 66a4 27be
00000040: ad0e 893f 619a 8b3f 532a f4be a33c f1be
00000050: 23ef 66be 979f 623d a115 293f 0e48 6dbf
00000060: 77ab 1a3f 9ecd 38be 4a4a 333e 0ea7 2d3f
00000070: 6c80 71bf 8094 c73e afaf 743f 4ff7 24bf
00000080: 0edb b0be b29e 693e 95cb d6bc aeba f13e
00000090: 7a52 c3be 17a5 1abf dd4d c83f 7476 5b3d
000000a0: acbf f1be d8e0 b43e 7629 89be 3d59 c3bd
000000b0: 777a 9b3e 5b60 d7be e77a 3dbe d67c d3be
000000c0: 6fce 093f 9fc0 91be 8088 88be b167 ca3e
000000d0: 7b62 68bf 9d3c 87be bddb 753e 7dca 193f
000000e0: ed32 dbbd 7da3 50bf 58c6 ec3d 36f4 5b3a

network_body._body_endoder.seq_layers.0.bias f4 [20]
0.009194844 0.008496177 -0.009121889 0.0100797815 -0.00947719 -0.010287499 0.0058722193 -0.0053472943
-0.006591144 0.006361702 0.003689373 -0.008747464 -0.009563114 0.0069096717 0.007250567 -0.006521783
0.006340582 -0.005684353 0.008485824 -0.0078598885
00000000: f9a5 163c 8d33 0b3c fa73 15bc ab25 253c
00000010: 3746 1bbc e68c 28bc bf6b c03b 5b38 afbb
00000020: 86fa d7bb d375 d03b 68c9 713b 8651 0fbc
00000030: 9bae 1cbc 876a e23b 2a96 ed3b aeb4 d5bb
00000040: a8c4 cf3b cf43 babb 2008 0b3c c3c6 00bc

value_heads.value_heads.extrinsic.weight f4 [1, 20]
-0.17421313 -0.19988799 0.30449036 -0.5225793 0.21894425 0.338075 -0.07629231 0.03951625
0.094817385 -0.5005828 -0.0064668586 0.47365203 0.2781593 -0.22392909 -0.1019762 0.30212674
-0.31236044 0.3097895 -0.36004224 0.29962903
00000000: ed64 32be 70af 4cbe 29e6 9b3e c2c7 05bf
00000010: ec32 603e 2b18 ad3e 253f 9cbd cbdb 213d
00000020: 9e2f c23d 3226 00bf f1e7 d3bb 8582 f23e
00000030: e56a 8e3e ab4d 65be e6d8 d0bd 5bb0 9a3e
00000040: b5ed 9fbe bb9c 9e3e 7557 b8be fa68 993e
