JumperExercise/Learning/results/Jumper00001/Jumper/Jumper-31564.onnx (onnx, 2291 bytes, 4 tensors)

network_body._body_endoder.seq_layers.0.weight f4 [20, 3]
000000 4d 6e 1e be 8a 19 2a 3f 04 07 a8 3d d7 ae 8f bf
       -0.15471764 0.6644522 0.08204463 -1.1225232
000010 e0 e2 9e 3f b0 ef c9 bd be 43 c0 3e 28 f6 f3 be
       1.2412987 -0.0986017 0.37551683 -0.4764874
000020 48 74 8d bf 1c 3e 35 3e 83 8e 70 bd 0a fc 3b 3c
       -1.1051111 0.17699474 -0.05872966 0.011473665
000030 1b c1 1a bf 0b dd e3 3d 05 e1 9a bd 41 42 75 bf
       -0.60450906 0.11126145 -0.0756245 -0.9580422
000040 30 e6 02 3e 5e 07 05 bf 1d 03 17 3f 8f e5 41 be
       0.12783122 -0.51964366 0.58989125 -0.18935226
000050 bb 5f 60 3e ec f6 47 bd 52 57 8f bf 19 5b f2 bd
       0.21911518 -0.048819467 -1.1198523 -0.11833782
000060 80 5a 19 bf e5 f6 4a 3f e1 a0 c6 3d 4f a1 ec 3e
       -0.5990372 0.7928298 0.09698654 0.4621682
000070 db 22 2b 3f a6 d0 3b bf 7b 3d 28 bf d1 8e bf 3d
       0.6685006 -0.7336525 -0.6571881 0.09353412
000080 e1 19 d3 3d 6c 4a 93 bf 17 e5 6b bf 3a 3e 93 3e
       0.103076704 -1.1507087 -0.9214644 0.28758413
000090 06 21 3b be 70 93 74 3e df c8 32 3f b7 67 3d be
       -0.18274316 0.23884368 0.69837755 -0.18496595
0000a0 27 72 8f 3f 50 bd 95 be c4 55 6b be a7 2c 22 3f
       1.1206712 -0.29245996 -0.22981936 0.63349384
0000b0 e0 c1 82 be 80 29 2a bf 72 19 75 be a4 a7 5a bf
       -0.2553854 -0.66469574 -0.23935488 -0.8541205
0000c0 87 6b b1 be 5b af b8 3e 56 0d d3 3e d8 e8 07 3f
       -0.3465235 0.36071286 0.41221112 0.53089666
0000d0 0b 6d 1a 3f 97 81 38 bd ad 3c 15 3e dd f8 8b bf
       0.60322636 -0.04504546 0.14573927 -1.0935322
0000e0 44 4b a2 be 1d 0b a9 bf 25 1a ab 3c 99 da 3e bf
       -0.31698048 -1.3206517 0.02088649 -0.74552304

network_body._body_endoder.seq_layers.0.bias f4 [20]
000000 d7 c1 18 3c 65 54 f7 bb c5 0e 68 bc b6 ee d5 bb
       0.009323559 -0.0075479024 -0.014163678 -0.0065287007
000010 80 95 92 bb d6 9c 39 bc 79 3c e7 3b c3 98 41 3c
       -0.004473388 -0.0113288965 0.0070567694 0.011816206
000020 ee 8b 2c bc a0 67 29 3c fe f4 84 3c a5 a8 21 bc
       -0.010531409 0.0103396475 0.016230103 -0.009866868
000030 d0 e8 04 3c 55 f9 c8 bc 08 f7 5c bc fc 3a 0c bc
       0.008112147 -0.024532953 -0.013486631 -0.008558985
000040 f6 e5 13 3c 8d e9 04 bc 94 55 17 bc e8 7d ec bb
       0.009026995 -0.0081123235 -0.009236712 -0.0072171576

action_model._discrete_distribution.branches.0.weight f4 [2, 20]
000000 69 82 3e 3c b1 e1 d3 bc 72 42 e3 ba f1 2c 0c bd
       0.011627772 -0.025864454 -0.0017338528 -0.034222547
000010 67 20 59 bc 99 25 5e ba c2 e4 ad 3c b5 a2 97 bb
       -0.013252354 -0.00084742304 0.021227244 -0.0046275505
000020 86 c9 a7 3b 9d 0a 21 bc cb 21 59 3c 73 ce 2b bc
       0.005120459 -0.009829191 0.013252686 -0.010486233
000030 2a b4 77 3c 20 26 50 3b f8 f0 77 b8 d6 16 b3 bc
       0.015118638 0.0031761006 -5.911381e-05 -0.021861475
000040 aa 8a 9a bc 14 6b 90 bc 43 c4 ba ba a8 e7 07 bd
       -0.018864948 -0.017629184 -0.0014249164 -0.03317991
000050 4d 0e ba bb 7d 9d f5 3c 29 8e 3e b9 00 e8 17 3d
       -0.0056779743 0.029982323 -0.00018172771 0.037086487
000060 56 5f bc 3c f5 b9 73 3c 40 65 14 bd 8f 43 1f bc
       0.022994678 0.014875879 -0.036229372 -0.009720697
000070 b3 91 5b 3c 1e e5 e7 bb 24 cf 9c 3c 5c a7 d6 3b
       0.013401437 -0.0070768734 0.019141741 0.0065507125
000080 31 9e 81 bc 5a d7 46 bb ac 26 0c 3b 30 45 00 3c
       -0.015822502 -0.0030340762 0.0021385355 0.007828996
000090 82 ef 20 bd 42 8a e3 3c c4 18 98 3c 4b dc 29 3d
       -0.039290912 0.027775887 0.018566497 0.041469853

action_model._discrete_distribution.branches.0.bias f4 [2]
000000 3a 87 d7 3b 39 87 d7 bb
       0.0065773996 -0.006577399
