JumperExercise/Learning/results/Jump1/Jumper.onnx (onnx, 2291 bytes, 4 tensors)

network_body._body_endoder.seq_layers.0.weight f4 [20, 3]
0.32575864 -1.1524755 -0.0030138118 -0.5236084 -0.4166116 -0.69280237 -0.2882076 -0.29248938
-0.031224873 -1.0795605 -0.19803591 -0.78370553 -0.19926573 -0.6181995 0.6372662 -0.18509506
0.2988295 -1.2648554 -0.62038887 -0.0914187 0.36189333 0.6668935 0.6848083 1.3626479
-0.074916564 -0.45835707 0.3671805 -0.50584805 0.11820175 0.4830407 1.2169129 0.7693502
0.72630763 0.6556751 -0.6881765 -0.08471343 -0.07328776 0.18245772 1.9546212 -0.7303028
0.6036683 0.89981234 0.40665203 0.48389822 0.40997687 -0.0037638142 0.276254 0.23471357
0.4273075 0.9203587 -1.0552527 -0.10170424 -0.063261405 0.59736663 0.00026789733 -0.29982227
-0.33810532 0.52237284 0.08383563 0.052062854
00000000: d6c9 a63e 5184 93bf 5f83 45bb 330b 06bf
00000010: 1e4e d5be 7f5b 31bf f28f 93be 2bc1 95be
00000020: 4ecb ffbc 0a2f 8abf edc9 4abe eda0 48bf
00000030: 510c 4cbe 5342 1ebf e123 233f 8f89 3dbe
00000040: 2e00 993e c8e6 a1bf ced1 1ebf ba39 bbbd
00000050: 154a b93e 88b9 2a3f 994f 2f3f 3f6b ae3f
00000060: db6d 99bd c7ad eabe 15ff bb3e 427f 01bf
00000070: c213 f23d 1c51 f73e cdc3 9b3f 22f4 443f
00000080: 4cef 393f 53da 273f 562c 30bf 3c7e adbd
00000090: e517 96bd 32d6 3a3e 0731 fa3f 20f5 3abf
000000a0: 018a 1a3f 1a5a 663f b234 d03e 82c1 f73e
000000b0: 7de8 d13e 53aa 76bb 2a71 8d3e c158 703e
000000c0: 0cc8 da3e a19c 6b3f 8512 87bf 504a d0bd
000000d0: 328f 81bd 05ed 183f 9274 8c39 4e82 99be
000000e0: 241c adbe 3aba 053f 04b2 ab3d dc3f 553d

network_body._body_endoder.seq_layers.0.bias f4 [20]
0.011873645 0.015106265 0.023367038 0.016051961 0.03374493 -0.029717896 -0.014126185 0.025123695
0.027801793 -0.010004238 0.033094898 -0.031578027 0.01765216 -0.011157803 -0.012788069 0.03134777
-0.035002336 -0.012978461 -0.025531283 -0.025693389
00000000: ad89 423c 4580 773c 3b6c bf3c 677f 833c
00000010: 2038 0a3d f272 f3bc 8471 67bc 35d0 cd3c
00000020: 96c0 e33c d1e8 23bc 848e 073d f657 01bd
00000030: 439b 903c 38cf 36bc 0d85 51bc 8566 003d
00000040: 9c5e 0fbd 9ca3 54bc fb26 d1bc f17a d2bc

action_model._discrete_distribution.branches.0.weight f4 [2, 20]
0.0020132803 -0.0058095767 -0.029771393 0.0014969317 -0.054464396 0.046774253 0.0036111367 -0.026847403
-0.027126528 -0.018029587 -0.022808136 0.047922175 -0.004614448 0.014717651 -0.011204829 -0.040316693
0.026126213 -0.0044366503 0.008348999 0.022780066 0.003016227 0.0015144492 0.010776619 0.011333518
0.01724812 -0.07349541 0.0023162283 0.012176635 0.041659426 -0.015094211 0.06449289 -0.023779938
0.024424238 0.017382512 -0.011319259 0.06256434 -0.052028403 -0.0059049795 -0.031991784 -0.042069897
00000000: 3df1 033b 435e bebb 23e3 f3bc b134 c43a
00000010: 0f16 5fbd 5c96 3f3d d2a8 6c3b 16ef dbbc
00000020: 7438 debc c9b2 93bc 21d8 babc 0b4a 443d
00000030: cc34 97bb 4d22 713c 7694 37bc 1e23 25bd
00000040: a406 d63c 5261 91bb 3dca 083c 439d ba3c
00000050: e4ab 453b 7c80 c63a 6b90 303c 38b0 393c
00000060: ee4b 8d3c c384 96bd ddcb 173b 8280 473c
00000070: 13a3 2a3d b64d 77bc d914 843d 25ce c2bc
00000080: 5715 c83c c565 8e3c 6a74 39bc bc21 803d
00000090: bc1b 55bd 8f7e c1bb d109 03bd 7c51 2cbd

action_model._discrete_distribution.branches.0.bias f4 [2]
-0.027076775 0.027076771
00000000: 1dd0 ddbc 1bd0 dd3c
