JumperExercise/Learning/results/Jump/Jumper/Jumper-58195.pt (torch, 12808 bytes, 21 tensors)

network_body._body_endoder.seq_layers.0.weight f4 [20, 3]
0	0xbe47b744	-0.19503504
1	0xbceacc29	-0.028661804
2	0xbedff6a3	-0.43742856
3	0xbec0373a	-0.37542135
4	0xbf0ddbee	-0.5541371
5	0xbe78fa6f	-0.24314283
6	0xbf382a48	-0.71939516
7	0xbf2072e8	-0.62675333
8	0xbfa95888	-1.3230143
9	0xbcf34c94	-0.029699601
10	0xbf31b764	-0.69420457
11	0xbecb9e07	-0.39769003
12	0xbed9e65b	-0.4255856
13	0x3c2b8337	0.010468296
14	0xbec50c87	-0.3848612
15	0xbf93f402	-1.155884
16	0xbec396f9	-0.3820112
17	0x3f35846a	0.7090517
18	0xbf43d8af	-0.7650251
19	0xbef96504	-0.4870988
20	0x3d716f90	0.058944285
21	0xbea482c7	-0.32131025
22	0x3f334389	0.70024925
23	0x3f47d909	0.78065544
24	0x3d8b7603	0.06809618
25	0xbf8ccb51	-1.0999547
26	0xbc0256e9	-0.007955291
27	0xbf31604c	-0.6928756
28	0x3d79ae33	0.060957145
29	0x3e3ad1c0	0.18244076
30	0xbe8bf3d0	-0.27334452
31	0xbf1f37fa	-0.6219479
32	0xbf8060de	-1.0029562
33	0xbf4ee94e	-0.80824745
34	0xbea514fb	-0.3224257
35	0xbec01724	-0.37517655
36	0xbe0a7d54	-0.13524371
37	0xbea2421a	-0.31691056
38	0x3eeb2589	0.45927075
39	0x3f58600c	0.84521556
40	0xbfb085c1	-1.3790818
41	0xbeb54e24	-0.3541118
42	0x3f832138	1.0244513
43	0x3f2b2553	0.6685383
44	0xbd6fa86d	-0.058510233
45	0xbf587256	-0.8454946
46	0x3e5cae21	0.215508
47	0x3e3a9958	0.18222558
48	0x3d257f04	0.040404335
49	0xbeb3ebac	-0.3514074
50	0xbebf43b5	-0.37356344
51	0xbea6deee	-0.32591957
52	0x3d6ca53b	0.057774764
53	0x3f409e5e	0.7524165
54	0x3c9b1807	0.018932356
55	0xbda3c297	-0.079960994
56	0xbee57749	-0.4481757
57	0x3e9d1963	0.3068343
58	0xbf364f7e	-0.71215045
59	0xbe978547	-0.2959387

network_body._body_endoder.seq_layers.0.bias f4 [20]
0	0x3ca138b2	0.019680355
1	0x3c9d0716	0.019168418
2	0x3d144871	0.036201898
3	0xbc616086	-0.013755923
4	0xbbc49f8a	-0.006000464
5	0xbd17f116	-0.03709515
6	0x3c95fa7e	0.01830792
7	0xbccf5b1d	-0.025312
8	0xb9cd5a13	-0.00039167757
9	0xbcfe77dc	-0.031063013
10	0x3cf00b19	0.029302167
11	0x3c37fdc8	0.01122994
12	0xbd0b8f6c	-0.034072325
13	0x3d171248	0.03688267
14	0x3a6230bf	0.00086284796
15	0xbcde2468	-0.02711697
16	0x3cafa635	0.021441558
17	0x3bec3700	0.007208705
18	0x3ced39dd	0.028958255
19	0xbba45b18	-0.005015742

action_model._discrete_distribution.branches.0.weight f4 [2, 20]
0	0xbba5e288	-0.005062405
1	0x3b734c3e	0.0037124301
2	0xbcc739d7	-0.024319572
3	0x3c8a9c56	0.01692025
4	0xbd0863f1	-0.033298437
5	0xb981eb60	-0.00024780165
6	0xbcd84fbb	-0.026405206
7	0xbadabbbc	-0.0016688029
8	0x3a8490c8	0.0010113949
9	0x3d02bd30	0.031918705
10	0xbc4d97d7	-0.0125484085
11	0x3b1fec11	0.002440218
12	0x3c46038b	0.012085806
13	0xb9d845a4	-0.00041250617
14	0x3d03702a	0.03208939
15	0x3cddd51b	0.027079156
16	0xbc963685	-0.018336544
17	0xbc63d87a	-0.0139065925
18	0x3ca81e08	0.020522133
19	0xbc9596e8	-0.018260434
20	0x3bf7b416	0.0075593097
21	0x3c703dd4	0.0146631785
22	0x3c0e67dd	0.008691755
23	0xbc9d5b2c	-0.019208513
24	0xbd3e9f9d	-0.046538938
25	0xbd08e1d1	-0.03341848
26	0xbc91f7b5	-0.017818311
27	0xbc1d7acb	-0.009611796
28	0xbab4a595	-0.0013782257
29	0x3af1bb2b	0.0018442621
30	0x3beee38e	0.00729031
31	0x3c1600f8	0.009155504
32	0xbcd2443c	-0.025667302
33	0x3cdf2348	0.027238503
34	0x3d1f62a6	0.038912438
35	0x3c4c06c1	0.012452782
36	0xbbb98a2b	-0.005662223
37	0x3c975b3e	0.018476125
38	0x3d1e71e8	0.03868285
39	0xbcd07e63	-0.02545089

action_model._discrete_distribution.branches.0.bias f4 [2]
0	0xbc982785	-0.018573532
1	0x3c982784	0.01857353

exp_avg f4 [20, 3]
0	0xae7adaa0	-5.7037597e-11
1	0x320157df	7.528768e-09
2	0xb4f4ea1d	-4.5618881e-07
3	0xae255552	-3.7592436e-11
4	0x3164a248	3.3270613e-09
5	0xb4d7346b	-4.008501e-07
6	0xae9242ae	-6.651156e-11
7	0xb1cea9a0	-6.014673e-09
8	0xb5a83bff	-1.2534437e-06
9	0x2f57cee8	1.9627644e-10
10	0xb1630d5f	-3.3040448e-09
11	0x35b0576f	1.3138468e-06
12	0x2e4f56e0	4.714351e-11
13	0xb2229caa	-9.465262e-09
14	0x34fe8dfc	4.7414494e-07
15	0x2cf38db5	6.922208e-12
16	0xb3439a51	-4.5542325e-08
17	0x35968ab7	1.1216242e-06
18	0xad863a03	-1.5259799e-11
19	0x31b8f467	5.38289e-09
20	0xb4a400ac	-3.054787e-07
21	0x2dd470e4	2.4151743e-11
22	0xb28a7f0d	-1.612309e-08
23	0x3490d00a	2.6973458e-07
24	0x2dc2e9cd	2.2159075e-11
25	0xaf97e033	-2.7626043e-10
26	0x33bdcbcb	8.838068e-08
27	0x2e7872ee	5.649075e-11
28	0xb327fd80	-3.9113274e-08
29	0x3588a34f	1.0180319e-06
30	0xaeb33561	-8.1494596e-11
31	0xb11daa59	-2.2943338e-09
32	0xb547ee7e	-7.448033e-07
33	0xad217655	-9.178065e-12
34	0x3125feed	2.4155569e-09
35	0xb482e24c	-2.437904e-07
36	0x2f4e92f1	1.8787795e-10
37	0xb344f32d	-4.5855973e-08
38	0x35a96126	1.2619755e-06
39	0xaf92c944	-2.6700253e-10
40	0xb1874157	-3.9364454e-09
41	0xb58ce24a	-1.0496672e-06
42	0xaeb11b0e	-8.053834e-11
43	0x3258d1b4	1.2620536e-08
44	0xb48156e5	-2.4091347e-07
45	0x2d9c883b	1.7795645e-11
46	0xb2b3b56e	-2.0920847e-08
47	0x3504e247	4.950311e-07
48	0xae9dca27	-7.175443e-11
49	0x319f4368	4.6351722e-09
50	0xb4f91617	-4.6395937e-07
51	0xaf0ab6db	-1.261599e-10
52	0x3383f9ca	6.145599e-08
53	0xb59a55d3	-1.1498872e-06
54	0xaeea1f4a	-1.0646646e-10
55	0x322d4770	1.0086168e-08
56	0xb5321c04	-6.6350935e-07
57	0x2e89136a	6.233487e-11
58	0xb0a01701	-1.164807e-09
59	0x348ca6c4	2.619837e-07

exp_avg_sq f4 [20, 3]
0	0x2def9fca	2.7242115e-11
1	0x3104ed2e	1.934335e-09
2	0x3108a5c0	1.9884823e-09
3	0x2dd660fa	2.437205e-11
4	0x2fe677f1	4.192198e-10
5	0x2ffebad2	4.6335075e-10
6	0x2e9258b0	6.6550654e-11
7	0x3071229d	8.772448e-10
8	0x307081b0	8.749579e-10
9	0x313d0c9b	2.7510285e-09
10	0x303f4c05	6.9593425e-10
11	0x30ad2dae	1.260039e-09
12	0x2fe8864b	4.2295975e-10
13	0x3252015e	1.222392e-08
14	0x3255915d	1.2431284e-08
15	0x2b93f1b1	1.0512061e-12
16	0x333bd7cd	4.37356e-08
17	0x333dbcea	4.4176808e-08
18	0x2c40e79f	2.7413417e-12
19	0x30ca099b	1.4700164e-09
20	0x30d21dad	1.5287945e-09
21	0x2ec59c7d	8.986321e-11
22	0x32eda288	2.7664342e-08
23	0x32ef2177	2.783848e-08
24	0x2ce07500	6.3794525e-12
25	0x2e8199f2	5.893587e-11
26	0x2f3b39d9	1.7028103e-10
27	0x2e78b2e7	5.654757e-11
28	0x330c0b0b	3.2606334e-08
29	0x330d6efa	3.2930053e-08
30	0x2ee8b6ff	1.0582645e-10
31	0x2f126d6a	1.3317494e-10
32	0x2f19b132	1.3978221e-10
33	0x2c87ff26	3.865258e-12
34	0x30374d59	6.668493e-10
35	0x3043a224	7.1171e-10
36	0x2f77335c	2.2482766e-10
37	0x3320e711	3.7463057e-08
38	0x33228390	3.783822e-08
39	0x30569280	7.8060935e-10
40	0x2fb627f9	3.313401e-10
41	0x2fbaa361	3.394929e-10
42	0x30a3c6ba	1.1916292e-09
43	0x33169c58	3.506679e-08
44	0x33171134	3.5173073e-08
45	0x2c271cb3	2.3748059e-12
46	0x325b9e4a	1.27834685e-08
47	0x325d9d93	1.2899721e-08
48	0x2f9dc943	2.870114e-10
49	0x3041e672	7.0540473e-10
50	0x304e8346	7.5128914e-10
51	0x30959dae	1.0885992e-09
52	0x34a5f58c	3.0912304e-07
53	0x34a6eae9	3.109083e-07
54	0x2fd2712f	3.82792e-10
55	0x311314ae	2.140307e-09
56	0x31173935	2.200591e-09
57	0x304069ff	6.999982e-10
58	0x2fb062d1	3.2084427e-10
59	0x2fffba21	4.6516482e-10

exp_avg f4 [20]
0	0xb982512b	-0.00024856007
1	0xb96320ec	-0.00021660671
2	0xba2f4799	-0.0006686389
3	0x3a38f58f	0.0007055634
4	0x3987d696	0.00025909086
5	0x3a23dfd6	0.00062513107
6	0xb92ec1c6	-0.0001666612
7	0x39207d1e	0.00015305399
8	0x3847273f	4.7481848e-05
9	0x3a147b7e	0.0005664154
10	0xb9d0a89c	-0.00039798475
11	0xb90a5b20	-0.00013194652
12	0x3a37bb90	0.0007008845
13	0xba12e4e3	-0.0005603565
14	0xb90e5d9c	-0.00013577048
15	0x3990f00b	0.00027644666
16	0xb983abb9	-0.0002511421
17	0xba2a00b9	-0.0006485093
18	0xb9bd4c2e	-0.00036105647
19	0x3913d32d	0.00014097682

exp_avg_sq f4 [20]
0	0x33f1258a	1.1229265e-07
1	0x33c572da	9.194419e-08
2	0x35023598	4.8506763e-07
3	0x35e6e20e	1.7202126e-06
4	0x351307c7	5.4773085e-07
5	0x34f356d2	4.5325447e-07
6	0x339b9d7b	7.2463955e-08
7	0x33f0aa92	1.12068975e-07
8	0x343a315c	1.7340557e-07
9	0x34cdbeb4	3.832298e-07
10	0x3435b10a	1.6921345e-07
11	0x33e795da	1.07840336e-07
12	0x350e1ab7	5.2938e-07
13	0x34a9f00f	3.165337e-07
14	0x3492c3ab	2.7336986e-07
15	0x33f55bab	1.1425376e-07
16	0x33d425ac	9.878872e-08
17	0x35fc1eb3	1.8784398e-06
18	0x341beada	1.4520938e-07
19	0x34b0abe3	3.290762e-07

exp_avg f4 [2, 20]
0	0x39bc59a2	0.00035924936
1	0x39bb38e5	0.0003570981
2	0x3a2c20f4	0.00065661897
3	0xb98e6fd8	-0.0002716768
4	0xb901ac7e	-0.00012366657
5	0xba311763	-0.0006755499
6	0x39b96492	0.0003536088
7	0xb9f0fec0	-0.0004596617
8	0xb695723d	-4.453845e-06
9	0xba17ac7e	-0.0005785896
10	0x3a0a40de	0.0005273948
11	0x39521905	0.00020036481
12	0xba23ef30	-0.0006253598
13	0x3a394ddc	0.0007068792
14	0x36f24fe5	7.221463e-06
15	0xba04621b	-0.0005050019
16	0x39cf9212	0.00039590948
17	0x3925e0e7	0.00015819409
18	0x3a0e140c	0.00054198573
19	0xb8d8df62	-0.00010341291
20	0xb9bc59a2	-0.00035924936
21	0xb9bb38e5	-0.0003570981
22	0xba2c20f6	-0.0006566191
23	0x398e6fd9	0.00027167684
24	0x3901ac7e	0.00012366657
25	0x3a311764	0.00067554996
26	0xb9b96491	-0.00035360878
27	0x39f0fec0	0.0004596617
28	0x3695723e	4.4538456e-06
29	0x3a17ac7f	0.0005785897
30	0xba0a40df	-0.0005273949
31	0xb9521906	-0.00020036483
32	0x3a23ef30	0.0006253598
33	0xba394ddc	-0.0007068792
34	0xb6f24fe9	-7.221465e-06
35	0x3a04621b	0.0005050019
36	0xb9cf9213	-0.0003959095
37	0xb925e0e8	-0.0001581941
38	0xba0e140d	-0.0005419858
39	0x38d8df66	0.00010341294

exp_avg_sq f4 [2, 20]
0	0x36f35be2	7.252661e-06
1	0x37615f65	1.3433256e-05
2	0x3765bd15	1.3693488e-05
3	0x3787f14a	1.6205613e-05
4	0x36b97b34	5.5277724e-06
5	0x370663f5	8.0102955e-06
6	0x36e5c92e	6.848152e-06
7	0x39a46cab	0.00031361482
8	0x3787548f	1.613263e-05
9	0x368ddcb9	4.227823e-06
10	0x3784248b	1.5752643e-05
11	0x374c40ec	1.2174463e-05
12	0x35c4edc3	1.4672336e-06
13	0x3795c107	1.785207e-05
14	0x38252f5c	3.9383172e-05
15	0x375d17a9	1.3178135e-05
16	0x374cdb1a	1.2210361e-05
17	0x38938ecd	7.036105e-05
18	0x370dcfba	8.45262e-06
19	0x37859bc3	1.5927368e-05
20	0x36f35bde	7.252659e-06
21	0x37615f69	1.34332595e-05
22	0x3765bd15	1.3693488e-05
23	0x3787f149	1.6205611e-05
24	0x36b97b34	5.5277724e-06
25	0x370663f6	8.010296e-06
26	0x36e5c930	6.848153e-06
27	0x39a46cab	0.00031361482
28	0x3787548d	1.6132626e-05
29	0x368ddcb8	4.2278225e-06
30	0x3784248c	1.5752645e-05
31	0x374c40ec	1.2174463e-05
32	0x35c4edc3	1.4672336e-06
33	0x3795c108	1.7852071e-05
34	0x38252f5b	3.938317e-05
35	0x375d17a9	1.3178135e-05
36	0x374cdb1b	1.2210362e-05
37	0x38938ecd	7.036105e-05
38	0x370dcfba	8.45262e-06
39	0x37859bc3	1.5927368e-05

exp_avg f4 [2]
0	0x3d23047a	0.03979919
1	0xbd23047b	-0.039799195

exp_avg_sq f4 [2]
0	0x3b60e71b	0.0034317437
1	0x3b60e71b	0.0034317437

exp_avg f4 [20, 3]
0	0xaeedf765	-1.0821458e-10
1	0xb3b457d5	-8.39788e-08
2	0xb6041b3e	-1.968539e-06
3	0xaf24714c	-1.4955964e-10
4	0xb30567c2	-3.1060843e-08
5	0xb5df2bb1	-1.6627511e-06
6	0xae89bf8e	-6.264066e-11
7	0xb2a61ca1	-1.9337962e-08
8	0xb560f4fb	-8.3802996e-07
9	0x2e56cb15	4.883834e-11
10	0x3294324c	1.725234e-08
11	0x3505475f	4.965022e-07
12	0x2fc20edd	3.5298955e-10
13	0x3296adde	1.7541364e-08
14	0x3604d91e	1.9795912e-06
15	0xaf46aa92	-1.8068594e-10
16	0xb2fe4a01	-2.9603145e-08
17	0xb5c16be5	-1.4411022e-06
18	0x2f304200	1.6030555e-10
19	0x33181ab5	3.5414548e-08
20	0x359bb81d	1.1601984e-06
21	0x2e897ab3	6.2518345e-11
22	0x2fb471c2	3.282264e-10
23	0x346ba185	2.1944841e-07
24	0xae906540	-6.5663475e-11
25	0xb2550026	-1.23982655e-08
26	0xb5c50ae0	-1.4680809e-06
27	0x2f3a2997	1.6931377e-10
28	0x32d94985	2.5295558e-08
29	0x35458987	7.358835e-07
30	0xacbf8bdd	-5.4440744e-12
31	0xb037ad35	-6.6821154e-10
32	0xb3011198	-3.0051154e-08
33	0xaf7f40b0	-2.3215097e-10
34	0xb30aa2c5	-3.2278667e-08
35	0xb5a684b0	-1.2406581e-06
36	0xaf94b6ae	-2.7050845e-10
37	0xb1b83be1	-5.3619122e-09
38	0xb5435c71	-7.277768e-07
39	0x2f026e36	1.1862586e-10
40	0x32f17200	2.8107934e-08
41	0x3577bfb6	9.2293647e-07
42	0xaf4e3ccd	-1.8757192e-10
43	0x3100b422	1.8728845e-09
44	0xb580613c	-9.565042e-07
45	0x2ee7ea9d	1.05463395e-10
46	0x3082cc53	9.516817e-10
47	0x34ac7650	3.212358e-07
48	0xafaabb9f	-3.1056133e-10
49	0xb286daa9	-1.5699088e-08
50	0xb58745df	-1.0078619e-06
51	0x2d82acc1	1.4856007e-11
52	0x32a8d233	1.9653362e-08
53	0x35564790	7.982535e-07
54	0x2f33159e	1.6287635e-10
55	0x31890eb7	3.9888977e-09
56	0x359db61a	1.175041e-06
57	0xaf9d9623	-2.8664812e-10
58	0xb298455e	-1.7726673e-08
59	0xb5d17864	-1.5606752e-06

exp_avg_sq f4 [20, 3]
0	0x2e62b2a7	5.1545126e-11
1	0x33c7b671	9.2998455e-08
2	0x33c9fd6b	9.405888e-08
3	0x2f4e00db	1.8735895e-10
4	0x328c5281	1.6335663e-08
5	0x329123b8	1.6896465e-08
6	0x2e296631	3.8516915e-11
7	0x32066d2e	7.824651e-09
8	0x320b96ec	8.1251805e-09
9	0x2e1e04f8	3.5929454e-11
10	0x3254aa24	1.237871e-08
11	0x3258fc88	1.2630274e-08
12	0x301db273	5.736986e-10
13	0x31f4d68a	7.125725e-09
14	0x32019f74	7.545044e-09
15	0x2f986f74	2.772783e-10
16	0x3286b516	1.5682001e-08
17	0x328b9a2d	1.625184e-08
18	0x2f82ca8f	2.379079e-10
19	0x331fc949	3.720314e-08
20	0x33235628	3.8029754e-08
21	0x2c98e58c	4.3455847e-12
22	0x2bbc8524	1.3395157e-12
23	0x2c21d1d7	2.299596e-12
24	0x2e303e42	4.0073063e-11
25	0x310a600c	2.013624e-09
26	0x31195038	2.231003e-09
27	0x2f9b7062	2.8274189e-10
28	0x32bc4a35	2.1919826e-08
29	0x32c07882	2.2406542e-08
30	0x2cf6f2ec	7.0187103e-12
31	0x2fd275b7	3.828242e-10
32	0x2fd9787e	3.9557685e-10
33	0x2ff469ee	4.445861e-10
34	0x329c3424	1.8184501e-08
35	0x32a1dd06	1.8843377e-08
36	0x306ea603	8.681981e-10
37	0x2fea6ff2	4.2643894e-10
38	0x3002eb0d	4.762775e-10
39	0x2f1e21c1	1.4382008e-10
40	0x32d8587b	2.5185946e-08
41	0x32dd6e06	2.5777819e-08
42	0x2fd1ce2d	3.8163375e-10
43	0x2db33477	2.0373243e-11
44	0x2e580e5f	4.9125478e-11
45	0x2ce7baf0	6.586169e-12
46	0x2d3b8631	1.0659516e-11
47	0x2d6d2995	1.3481123e-11
48	0x30897b4b	1.0003104e-09
49	0x319ac608	4.5045034e-09
50	0x31a41758	4.775682e-09
51	0x2c02dc94	1.8596557e-12
52	0x324ba7c0	1.1854297e-08
53	0x3250d72a	1.2156116e-08
54	0x2ee85298	1.056481e-10
55	0x2ff1f200	4.4009596e-10
56	0x30113970	5.2832316e-10
57	0x304a1725	7.352006e-10
58	0x319fee54	4.654604e-09
59	0x31aee2a4	5.0898326e-09

exp_avg f4 [20]
0	0xba65cfc0	-0.0008766614
1	0xba46f661	-0.0007589814
2	0xb9c7a43d	-0.00038078605
3	0x3969bea5	0.00022291632
4	0x3a6f3b8a	0.00091259985
5	0xba2c1b93	-0.0006565388
6	0x3a092543	0.00052316877
7	0x38d5c834	0.00010193922
8	0xba317f4a	-0.00067709817
9	0x39ad484a	0.0003305099
10	0xb7659c7e	-1.36859e-05
11	0xba1354e0	-0.00056202523
12	0xb9b02c7e	-0.00033602485
13	0x39da362c	0.0004162056
14	0xb9e9b651	-0.0004457706
15	0x391c3523	0.00014897114
16	0xb9f1f188	-0.00046147057
17	0x39bddeac	0.00036214793
18	0x3a0ec7bc	0.0005446633
19	0xba3c20c7	-0.0007176515

exp_avg_sq f4 [20]
0	0x36f8c091	7.4133936e-06
1	0x36db52ce	6.5363483e-06
2	0x35ec4eb1	1.7606272e-06
3	0x3538e83a	6.8883276e-07
4	0x37087643	8.133767e-06
5	0x36a5fac4	4.946576e-06
6	0x36584a80	3.2229873e-06
7	0x33a1c609	7.533169e-08
8	0x36b17d20	5.2895775e-06
9	0x35ba1d68	1.3866638e-06
10	0x32409e79	1.1211903e-08
11	0x366a1420	3.4880431e-06
12	0x35bc9ea9	1.4053268e-06
13	0x360cfe70	2.1009728e-06
14	0x3622d11b	2.4261597e-06
15	0x34386c90	1.717583e-07
16	0x3629a869	2.528099e-06
17	0x35cc66b8	1.522908e-06
18	0x363aa8a8	2.781433e-06
19	0x36c597d4	5.8887326e-06

exp_avg f4 [1, 20]
0	0xb75b4ea5	-1.3071728e-05
1	0x373a3138	1.1097924e-05
2	0x36afdf44	5.241398e-06
3	0x3630680e	2.6286612e-06
4	0xb71f28e8	-9.486663e-06
5	0x371a2414	9.187515e-06
6	0x35e853e5	1.7309764e-06
7	0x38a082ef	7.653783e-05
8	0x37944b3a	1.7678005e-05
9	0x3582ec00	9.75444e-07
10	0xb76b21ac	-1.4014931e-05
11	0x365c474a	3.282405e-06
12	0x37d8b15b	2.5831794e-05
13	0x3586f922	1.0056285e-06
14	0x37dff008	2.6695445e-05
15	0x378b4940	1.6604201e-05
16	0x3781ac49	1.5458225e-05
17	0x34bea4a3	3.5510047e-07
18	0xb75a241d	-1.3002221e-05
19	0x3782e906	1.5605718e-05

exp_avg_sq f4 [1, 20]
0	0x343ab660	1.7388948e-07
1	0x329fa408	1.8584629e-08
2	0x31d1800c	6.097258e-09
3	0x339f0691	7.405209e-08
4	0x330b9238	3.2496445e-08
5	0x3256f27f	1.2511577e-08
6	0x32f3d60b	2.8386259e-08
7	0x33e58993	1.0688668e-07
8	0x33529678	4.9031286e-08
9	0x3398e7fa	7.120248e-08
10	0x3209eaad	8.027809e-09
11	0x30d361cc	1.5380066e-09
12	0x338be47d	6.514254e-08
13	0x32ee738d	2.7759393e-08
14	0x33825bc9	6.0702924e-08
15	0x335ef3fd	5.191031e-08
16	0x33015a48	3.0117263e-08
17	0x315131dd	3.0441847e-09
18	0x3352de36	4.9096535e-08
19	0x33282c94	3.915609e-08

network_body._body_endoder.seq_layers.0.weight f4 [20, 3]
0	0xbf42a76c	-0.76036716
1	0x3f99e50b	1.2023023
2	0xbeab3c73	-0.33444557
3	0xbf07f496	-0.53107584
4	0x3e4447c1	0.19167997
5	0xbee1f363	-0.44131002
6	0xbf212e72	-0.62961495
7	0xbeb010f7	-0.34387943
8	0x3e8ca714	0.2747122
9	0xbef47090	-0.47742128
10	0x3ed7a706	0.42119616
11	0x3bc990cf	0.0061512957
12	0xbd25e112	-0.040497847
13	0xbe4bb72a	-0.1989409
14	0xbf029814	-0.510133
15	0xbea3a82f	-0.3196425
16	0xbd74c6d2	-0.059759922
17	0xbde5ed55	-0.11226908
18	0xbe7a22e5	-0.24427374
19	0x3e49083b	0.19632046
20	0x3d337723	0.04381479
21	0x3f121cee	0.57075393
22	0xbf9408ac	-1.1565146
23	0x3d2872d4	0.041125134
24	0xbf581278	-0.8440318
25	0xbe722c9f	-0.23649834
26	0xbef4e561	-0.47831252
27	0x3e89eadb	0.26936993
28	0x3e0d82ae	0.13819382
29	0x3e8bd3f8	0.27310157
30	0x3e6c94d1	0.23103644
31	0x3e53e11a	0.20691338
32	0xbdb3ec30	-0.087852836
33	0x3cd56e53	0.026053583
34	0xbefd6976	-0.49494523
35	0x3f0c4708	0.54795885
36	0x3f9abf8b	1.2089704
37	0xbce9963b	-0.028514018
38	0xbf3e0c1e	-0.7423724
39	0xbe99890b	-0.29987368
40	0x3dcad6e6	0.0990427
41	0x3e0d41e5	0.13794668
42	0x3d284211	0.04107863
43	0xbf523d38	-0.8212466
44	0xbf236d16	-0.63838327
45	0x3f5cc02e	0.8623074
46	0xbf8b8b57	-1.0901898
47	0x3d43c41a	0.04779444
48	0x3f37bef8	0.7177577
49	0xbf03e669	-0.51523453
50	0x3e092358	0.13392389
51	0xbf89cbb1	-1.0765287
52	0x3e2df376	0.16987404
53	0xbe390cb0	-0.18071246
54	0xbe86a386	-0.26296633
55	0xbf42833a	-0.75981486
56	0xbe896b51	-0.26839688
57	0xbbdaffdb	-0.0066833324
58	0xbf34eec9	-0.7067686
59	0x3e0b9585	0.13631256

network_body._body_endoder.seq_layers.0.bias f4 [20]
0	0x3c157605	0.009122376
1	0xbb92aa6a	-0.0044758813
2	0xbb3005a5	-0.0026858833
3	0xbb1d00e0	-0.002395682
4	0x3bb51809	0.005526547
5	0xbb8614b4	-0.0040918235
6	0xbb047224	-0.0020209635
7	0xbd3c923b	-0.046037894
8	0xbc0628ba	-0.008188421
9	0xbb06fbf5	-0.0020596955
10	0x3c0c39ac	0.008558672
11	0xbb0a686a	-0.0021119365
12	0xbc4ad9f8	-0.012381069
13	0xbaeb288d	-0.0017941162
14	0xbc568726	-0.013093745
15	0xbc304338	-0.010758214
16	0xbc0710fa	-0.008243794
17	0xba426c90	-0.000741669
18	0x3be50610	0.006989248
19	0xbc082bf7	-0.008311263

value_heads.value_heads.extrinsic.weight f4 [1, 20]
0	0x3eff147c	0.49820316
1	0x3edfb7ab	0.43694815
2	0x3e5f991e	0.21835753
3	0xbe02dff6	-0.12780747
4	0xbf04f697	-0.51938766
5	0x3ec14859	0.3775051
6	0xbe997bb4	-0.2997719
7	0xbd7d30b2	-0.061814018
8	0x3ec857b0	0.391294
9	0xbe41d500	-0.1892891
10	0x3c071b3c	0.008246239
11	0x3ea4d5b2	0.32194287
12	0x3e4798cd	0.19491883
13	0xbe74178f	-0.23837112
14	0x3e8481c8	0.25880265
15	0xbdb0c0fd	-0.086305596
16	0x3e884d60	0.26621532
17	0xbe544186	-0.2072812
18	0xbe9e59d8	-0.3092792
19	0x3ed417da	0.41424447
