JumperExercise/Learning/results/Jump/Jumper/Jumper-58195.onnx (onnx, 2291 bytes, 4 tensors)

network_body._body_endoder.seq_layers.0.weight f4 [20, 3]
-0.19503504 -0.028661804 -0.43742856 -0.37542135 -0.5541371 -0.24314283 -0.71939516 -0.62675333
-1.3230143 -0.029699601 -0.69420457 -0.39769003 -0.4255856 0.010468296 -0.3848612 -1.155884
-0.3820112 0.7090517 -0.7650251 -0.4870988 0.058944285 -0.32131025 0.70024925 0.78065544
0.06809618 -1.0999547 -0.007955291 -0.6928756 0.060957145 0.18244076 -0.27334452 -0.6219479
-1.0029562 -0.80824745 -0.3224257 -0.37517655 -0.13524371 -0.31691056 0.45927075 0.84521556
-1.3790818 -0.3541118 1.0244513 0.6685383 -0.058510233 -0.8454946 0.215508 0.18222558
0.040404335 -0.3514074 -0.37356344 -0.32591957 0.057774764 0.7524165 0.018932356 -0.079960994
-0.4481757 0.3068343 -0.71215045 -0.2959387
00000000: 44b7 47be 29cc eabc a3f6 dfbe 3a37 c0be
00000010: eedb 0dbf 6ffa 78be 482a 38bf e872 20bf
00000020: 8858 a9bf 944c f3bc 64b7 31bf 079e cbbe
00000030: 5be6 d9be 3783 2b3c 870c c5be 02f4 93bf
00000040: f996 c3be 6a84 353f afd8 43bf 0465 f9be
00000050: 906f 713d c782 a4be 8943 333f 09d9 473f
00000060: 0376 8b3d 51cb 8cbf e956 02bc 4c60 31bf
00000070: 33ae 793d c0d1 3a3e d0f3 8bbe fa37 1fbf
00000080: de60 80bf 4ee9 4ebf fb14 a5be 2417 c0be
00000090: 547d 0abe 1a42 a2be 8925 eb3e 0c60 583f
000000a0: c185 b0bf 244e b5be 3821 833f 5325 2b3f
000000b0: 6da8 6fbd 5672 58bf 21ae 5c3e 5899 3a3e
000000c0: 047f 253d aceb b3be b543 bfbe eede a6be
000000d0: 3ba5 6c3d 5e9e 403f 0718 9b3c 97c2 a3bd
000000e0: 4977 e5be 6319 9d3e 7e4f 36bf 4785 97be

network_body._body_endoder.seq_layers.0.bias f4 [20]
0.019680355 0.019168418 0.036201898 -0.013755923 -0.006000464 -0.03709515 0.01830792 -0.025312
-0.00039167757 -0.031063013 0.029302167 0.01122994 -0.034072325 0.03688267 0.00086284796 -0.02711697
0.021441558 0.007208705 0.028958255 -0.005015742
00000000: b238 a13c 1607 9d3c 7148 143d 8660 61bc
00000010: 8a9f c4bb 16f1 17bd 7efa 953c 1d5b cfbc
00000020: 135a cdb9 dc77 febc 190b f03c c8fd 373c
00000030: 6c8f 0bbd 4812 173d bf30 623a 6824 debc
00000040: 35a6 af3c 0037 ec3b dd39 ed3c 185b a4bb

action_model._discrete_distribution.branches.0.weight f4 [2, 20]
-0.005062405 0.0037124301 -0.024319572 0.01692025 -0.033298437 -0.00024780165 -0.026405206 -0.0016688029
0.0010113949 0.031918705 -0.0125484085 0.002440218 0.012085806 -0.00041250617 0.03208939 0.027079156
-0.018336544 -0.0139065925 0.020522133 -0.018260434 0.0075593097 0.0146631785 0.008691755 -0.019208513
-0.046538938 -0.03341848 -0.017818311 -0.009611796 -0.0013782257 0.0018442621 0.00729031 0.009155504
-0.025667302 0.027238503 0.038912438 0.012452782 -0.005662223 0.018476125 0.03868285 -0.02545089
00000000: 88e2 a5bb 3e4c 733b d739 c7bc 569c 8a3c
00000010: f163 08bd 60eb 81b9 bb4f d8bc bcbb daba
00000020: c890 843a 30bd 023d d797 4dbc 11ec 1f3b
00000030: 8b03 463c a445 d8b9 2a70 033d 1bd5 dd3c
00000040: 8536 96bc 7ad8 63bc 081e a83c e896 95bc
00000050: 16b4 f73b d43d 703c dd67 0e3c 2c5b 9dbc
00000060: 9d9f 3ebd d1e1 08bd b5f7 91bc cb7a 1dbc
00000070: 95a5 b4ba 2bbb f13a 8ee3 ee3b f800 163c
00000080: 3c44 d2bc 4823 df3c a662 1f3d c106 4c3c
00000090: 2b8a b9bb 3e5b 973c e871 1e3d 637e d0bc

action_model._discrete_distribution.branches.0.bias f4 [2]
-0.018573532 0.01857353
00000000: 8527 98bc 8427 983c
